models/colored.pth (torch, 798968 bytes, 10 tensors)

net.0.weight f4 [256, 2]
00000000: 0f5a 08bf 0694 cbbe 78ba 46be c71b bbbd
00000010: b314 a53e 3a94 903d e6b8 c13d b7cf 89be
00000020: f1ec aebd 25c4 913e 4aaa 98bd bfcc 01bf
00000030: a0be b2be 9412 893e 7fd8 5e3d 13f6 77be
00000040: b9e4 61bd a9e2 a5be cf4c 3b3e 6a15 54be
00000050: 204d dbbe 7b1d 49be eff1 37be 1e14 11be
00000060: a446 64be 3510 6b3e f648 16bd b67b c0bd
00000070: 6ba1 c33d 859c efbe 3a43 bcbe 49a2 823d
00000080: a5e7 bbbe a761 b4be 8e9e f13c 2e69 16bd
00000090: e927 e13e 2267 5c3c 68cd ad3e af56 fc3e
000000a0: 9d7f a63d f94a 4c3c bf6b debe 3988 383e
000000b0: f847 343e e4aa e3be e25f 43be d613 7abd
000000c0: b9aa c2bc 1510 ef3d a9f7 93be 3ce5 3a3d
000000d0: 1103 adbe 703d 8dbe 7d6d 183e f03c 0d3e
000000e0: cd32 0c3e 7704 cb3e c829 e3be 708f 383e
000000f0: e419 dfbe 8f75 ec3e 6bce ba3e 1632 643e
00000100: 4376 c33e 6e3b 37be aede e93e f0dc b9bc
00000110: a49e b0be e7e8 9c3c 150a 533e ed54 2abe
00000120: 4b58 b43e 99cf cebe 07ad f0be 7d5f 61bc
00000130: 9cc9 e03c 2b27 cebd 8eed 15be 634e da3e
00000140: 5a1c e4be e6df 9bbe 1f0f 01bf 6d46 723e
00000150: 8075 2d3e 8a24 b13e 260c fdbe 46d1 e23d
00000160: 8b78 b93d 9cf5 083e f057 53be f6f5 7fbb
00000170: 5bd9 7dbe f16b 8a3e 03d3 a23d df38 9c3e
00000180: 1499 c83e f420 253d 5083 b13e 8987 25be
00000190: d705 b33e ce46 65bc 8bc3 ed3e 7af5 69be
000001a0: b62f d5be ef58 1c3e f1dd dc3e f800 67be
000001b0: bedc c4be c236 b13c 664e c73e 6797 1cbd
000001c0: e847 21be 6439 e9be 90ba a53e 1d35 ad3e
000001d0: c216 663e 3b9e 7fbe 80b4 9abe 33ae 403e
000001e0: 5e32 b43e d9b7 23be 4037 4fbe f046 b13d
000001f0: 1dc2 77be 4f85 74be ae19 e43d 49bc 623e
00000200: e686 c3be 1226 413e 6102 3d3e c319 923e
00000210: 5418 04be cfc8 a2be 6a48 a1be c68f bb3d
00000220: bb25 713e 7766 2fbd 1969 883e 8dbd c03e
00000230: b2d6 923e b6a2 ed3d ed16 ccbe c9f1 74bc
00000240: 03bf cdbe 238f 2bbe 2482 d1be d72a cd3d
00000250: 5d5a c3bd 2e52 f6bc 13db e63e 953a c7be
00000260: 337a d8bd c7ce 62bd 64a9 2fbd 8599 f03e
00000270: 0e87 cd3e 8b19 ff3e ccab 963d c6fb ce3e
00000280: 3807 123e d463 6dbd f973 73be f8cf fcbe
00000290: 9363 a6bd c4cc 9d3e 5702 dabe d0f0 913e
000002a0: 8624 7ebe 498c b7be c506 58be 3aef c03e
000002b0: 8634 803d 4df4 ca3e 7918 c63d 698d f3be
000002c0: 427a bf3e 32de 803e 028f 1b3e aeb1 b33e
000002d0: 7c18 733e 42b8 f3be 3c91 853e e0b2 e3be
000002e0: 7fad 8e3e 0ba9 cc3e aec4 013f 40d5 eabd
000002f0: 5cbc e03d cd3a d83e 9ea0 883e 6e10 23bc
00000300: 8cf4 f4be c9ca 09bd f26a 733d 416b 1bbe
00000310: deaf e23e 69cb db3e 479f b83e 6512 59be
00000320: dc96 bbbe 526f d7be c03d b63e f925 443e
00000330: 81b8 8fbe b471 be3e 2edf f53b 0fa4 68bc
00000340: ae8b d8bd e17f 93bd 183b f1be d88f 833e
00000350: a39d 2fbe 5078 a2be 60bf 6fbe e22f b7bd
00000360: 747e b23e 3f41 9dbe 40e9 033d 4616 00bf
00000370: 0b7c 6b3d 1d6c a3be cb5a 1bbe cf0f 033e
00000380: 3748 e93e 15f0 473e ac91 8a3e f9ae 09be
00000390: 10e6 03bf 4c45 fdbe 5100 0abd f4cb d03e
000003a0: 4f30 cb3e e4c8 b63e 4924 c93e 790f 343e
000003b0: f6ba 49be 3439 7f3e ffdd fc3e 4811 0ebe
000003c0: 38b7 dc3e d19a 8fbe 9834 39bd bad5 1fbd
000003d0: b147 fd3c 26b2 edbe a0d9 aa3e cae4 383d
000003e0: 42db ebbe 8d1a 9c3e 374c afbc e87f 25bd
000003f0: 713f b43e ab4f c9be 1ccc ecbe 8ce5 ac3d
-0.5326242 -0.3976137 -0.1940707 -0.091361575 0.32242355 0.07059522 0.09459095 -0.26916286
-0.08541287 0.2846996 -0.07454355 -0.5070304 -0.3491106 0.26771986 0.054405686 -0.24214964
-0.055149768 -0.3239949 0.18291019 -0.20711294 -0.4283228 -0.19640152 -0.17963384 -0.1416783
-0.22292572 0.22955401 -0.036690675 -0.09398596 0.095522724 -0.46799102 -0.3677004 0.0637861
-0.36700168 -0.35230753 0.02949455 -0.0367214 0.43975762 0.013452323 0.33945775 0.49284884
0.08129809 0.012469047 -0.4344158 0.18020715 0.17605579 -0.44466317 -0.19079545 -0.061054073
-0.023763048 0.11672989 -0.28899887 0.04562877 -0.33791402 -0.27585936 0.14885516 0.13792777
0.13691254 0.39651844 -0.44367814 0.18023467 -0.4357444 0.4618344 0.3648561 0.22284731
0.38176164 -0.17893764 0.45677704 -0.022688359 -0.34496033 0.019154025 0.20609315 -0.16633959
0.35223612 -0.4039276 -0.4700701 -0.013755676 0.027439885 -0.100660644 -0.14641401 0.4263793
-0.4455288 -0.30444258 -0.504137 0.23659678 0.16939354 0.3459819 -0.4942333 0.11075072
0.09056195 0.13374943 -0.20639014 -0.0039056516 -0.24789946 0.27035478 0.079504035 0.3051214
0.3917929 0.04031463 0.34670496 -0.16164984 0.34965393 -0.013993932 0.4643825 -0.22847548
-0.41637963 0.152683 0.43138078 -0.22558963 -0.38449663 0.021632556 0.38927 -0.038230326
-0.15750086 -0.45551598 0.32368898 0.33829585 0.22469619 -0.24962704 -0.30215836 0.18816452
0.35194677 -0.15988101 -0.2023592 0.086561084 -0.24195142 -0.23878978 0.111377105 0.22142138
-0.38188857 0.18862179 0.18457939 0.2853528 -0.12899905 -0.3179383 -0.3150056 0.09158282
0.2354955 -0.042822327 0.26642683 0.37644616 0.28679425 0.116033 -0.3986124 -0.014950224
-0.40184793 -0.16753821 -0.40919602 0.10017937 -0.0953872 -0.030068483 0.45089015 -0.38911882
-0.10570183 -0.05537298 -0.042886153 0.46992126 0.401421 0.49824175 0.073569864 0.40426463
0.14260566 -0.05795653 -0.23774709 -0.49377418 -0.08124461 0.30820286 -0.4257991 0.28504038
-0.2481862 -0.35849217 -0.21096332 0.37682515 0.06260018 0.39639512 0.096726365 -0.47568825
0.37397963 0.25169522 0.15191272 0.35096496 0.23739809 -0.47601515 0.26087368 -0.44472408
0.27866742 0.3997272 0.50690734 -0.114664555 0.10973427 0.4223236 0.2668504 -0.009952648
-0.47842824 -0.033640657 0.059428163 -0.15177633 0.442748 0.42928627 0.3605902 -0.21198423
-0.36638534 -0.42077118 0.35593987 0.1915511 -0.28070453 0.37196124 0.0075034117 -0.014199271
-0.10573517 -0.07202125 -0.47115397 0.25695682 -0.17149977 -0.31732416 -0.23412848 -0.0894468
0.348621 -0.3071384 0.032204866 -0.50033987 0.057491343 -0.3191842 -0.15171354 0.12798999
0.45562908 0.19525178 0.27064264 -0.13445653 -0.5152292 -0.49466932 -0.033691708 0.40780604
0.39685294 0.35700142 0.39285496 0.17584027 -0.19700226 0.24924165 0.4938812 -0.1387378
0.43108535 -0.28047803 -0.045216173 -0.039022185 0.030917974 -0.4642498 0.3336916 0.045140065
-0.46065718 0.30489007 -0.021398647 -0.040405184 0.35204652 -0.39318594 -0.46249473 0.0844222

net.0.bias f4 [256]
00000000: b307 823c 9a43 873c eeb1 2cbc 6517 81bb
00000010: b4f8 c73c bfd4 81bc a661 7c3c bf4f 2abc
00000020: cab6 2c3c b63b 573c 5319 c9b9 92c4 95bc
00000030: dddc 5a3c 9ab2 fdbb 0a3e 24bc 22db 243c
00000040: a24c 853c 8672 313c ab9f 36bc 364a 25bc
00000050: 3111 a2bb b9c6 ad3c 88a7 3ebc ef21 b8ba
00000060: c7db 82bc d242 cf3b 898b 083d 2a71 45bc
00000070: 7480 1ebc 3c5a ad3c 5748 6dbc c40b 563c
00000080: 60af d83a 23d9 973c 2f7b afbc 23dd d5bc
00000090: c98c bebc e9ed 833c 85ff 38bc eac3 8a3c
000000a0: f9e8 29bc edc7 ccbc e7b9 c2bc 05db a6bb
000000b0: ea9d 593c 57f8 ed3c 7426 c83b ae8b 583c
000000c0: 2bda e3bb ad39 193c c7e2 79bc e319 5fbb
000000d0: af5c 86bc 1997 813c 124a 32bc f9e4 debc
000000e0: b63d 55bc fc0a 0b3c f0a3 833c 191f 4d3c
000000f0: 3c94 c3bc 3ebb 393c f837 a1bc 99ec 053c
00000100: 2437 223c 39af 20bc f174 f8bb fdc0 c73b
00000110: 7f64 0c3c 7f8a 33bc 37b0 8ebb 7037 253c
00000120: 4366 603c b08e 86bc a5ff 0a3c 64eb 483c
00000130: 8728 153b faaf b2bc 8ff7 82bc a93c 943c
00000140: f6c4 2abc d9d8 a5bb b725 263c 4eb9 83bc
00000150: 29bd 96bc 020e 79bc 46cb 843c 1af8 a7bb
00000160: 540a 823c 99ac 2eba 590d 1abc 73c4 ea3b
00000170: 6c64 e4bc 6c07 d4bb b843 4c3c 7bd6 c13c
00000180: bf5b d3bc 2e53 223b 9ba8 4dbc 345d 8d3c
00000190: 771a b9bc 952a a63c 4289 34bb 9aed 433c
000001a0: 4bfd 04bc 555f ca3c 9525 2b3d cbe1 b9bc
000001b0: 321e 31bc 942b a03b 052d 613c 972d 493c
000001c0: 24d2 483a d22f 00bc 56b8 70bc d4db fb3c
000001d0: a479 003d 1fad 91bc 0d10 0fbc dead 503c
000001e0: f542 aa3c 5b48 3dbc e8f8 893c 4806 a3bc
000001f0: e9e7 8abc c7c5 763c 0637 0fbc e60f bebc
00000200: a3c4 8ebc b63e fe3c e498 a53c c385 9d3c
00000210: c4bb 993a 6d3f 3fbb 9017 4d3c 7bb8 6e39
00000220: aff9 433c dde9 02bc d504 b0bc d806 90bc
00000230: ffd6 a23c 7bcd 393c c47e 80bc eb0c 3dbc
00000240: fb47 21bc 59a8 3e3c d8f7 b53c d8f0 d6ba
00000250: 2d20 adbc 841c 88bc 255c 9fbb e630 663c
00000260: 9a2d 7c3c 92ed 1bbc ffcf 1bbc daf3 85bc
00000270: 6626 d3bb edda 8abc ea51 8cbb 2b84 38bc
00000280: c496 07bc f0cd 3339 3eb8 5f3c 3d28 f2bc
00000290: ffb6 fcbb 1b9a 743c 1728 ccbc 9edd c9bc
000002a0: 6df0 683c 1662 cc3c de18 8bbc f7fc 863c
000002b0: 4295 95bc 1d16 8c3b 2ed6 1ebd 70ec b83c
000002c0: 4e07 a2bc 876d 3b3c a643 7ebb aa45 eabc
000002d0: 7377 98bc ceed a13c ba80 113c 0273 81bc
000002e0: 6535 a73c 93c9 9d3c a115 853c b3df 7fbc
000002f0: 46e2 7b3b 1c07 c83c 8a34 3f3c 8855 033b
00000300: c298 38bc c727 b93c b868 b63c bfe9 7fbb
00000310: 386d 393c cf16 8dbc e34a 953c a46a a23c
00000320: 6a4f bdbb b784 18bc 09b3 b2bb 8b64 983c
00000330: 63a6 f53b 1bba de39 6e26 cb3b 5bdd 943c
00000340: a195 d03b 2c58 22bc 5ca4 c43a 28b2 10bc
00000350: 513f 59bc ac94 13bc ebc9 bf3c c180 67bc
00000360: fbd6 d5bb a341 b73b 1b6a 153c b012 f9ba
00000370: 84c6 353c eb26 803c a380 46bc ca27 043c
00000380: 6ae7 b2bc b27b 2fbc d3a8 833c 3146 52bc
00000390: b421 a03c f920 843c 0e42 6f3c 1642 d0bc
000003a0: 1916 903b fdab c83b f84b 573c c3fb 4a3c
000003b0: 7be9 70bc 60c9 443c bb6e f5ba e9f7 36bc
000003c0: 180d 80bc 12b5 8bbc b257 d1bc d1ef 493b
000003d0: 6f75 b83b 743d 26bc 5eec f13b 58d3 093d
000003e0: 19b4 4ebc e359 99bc 52eb 89bc 6370 05bc
000003f0: d405 51bc 77ec 9a3c f182 a23b 13f5 04bc
0.015872812 0.016511727 -0.010540469 -0.0039395564 0.024410583 -0.015848516 0.015404141 -0.0103949895
0.010541627 0.013136795 -0.00038356576 -0.018282209 0.013358322 -0.007742238 -0.010024557 0.010062011
0.016271893 0.010830527 -0.011146466 -0.010088494 -0.004945897 0.021212922 -0.011636622 -0.0014048199
-0.015973939 0.0063251043 0.033336196 -0.012050906 -0.00967418 0.021161191 -0.014482579 0.013064329
0.0016531758 0.018536156 -0.021421043 -0.026106423 -0.023260491 0.016104655 -0.011291389 0.016939122
-0.010370486 -0.024997676 -0.023770286 -0.005092027 0.013282279 0.029049082 0.0061080996 0.013216896
-0.006953498 0.00935213 -0.015251822 -0.003404253 -0.016401617 0.01581912 -0.010881918 -0.027208792
-0.013015201 0.008486506 0.016069382 0.012519621 -0.023874395 0.011336146 -0.019680008 0.008174085
0.009900842 -0.009807401 -0.0075823 0.006096004 0.008568882 -0.010958313 -0.0043545025 0.010084018
0.013696256 -0.01642546 0.008483802 0.012263153 0.0022759752 -0.021812428 -0.015987186 0.018095331
-0.010422936 -0.0050612506 0.010140828 -0.016079571 -0.018400745 -0.015201094 0.01621021 -0.0051260116
0.015874065 -0.00066632923 -0.009402596 0.007164532 -0.027879916 -0.0064706113 0.012467317 0.023661843
-0.025800584 0.0024768817 -0.012552406 0.017256357 -0.022595627 0.020283977 -0.0027547632 0.011958504
-0.00811703 0.024703661 0.041783888 -0.022690674 -0.010810422 0.0048880074 0.013743644 0.012278936
0.0007660708 -0.007823901 -0.014692387 0.03074447 0.031366006 -0.017782746 -0.008731854 0.012736766
0.02078388 -0.011552895 0.01684232 -0.019900456 -0.016956287 0.015061802 -0.008741146 -0.02320094
-0.017427748 0.031035762 0.020214505 0.019228822 0.0011728932 -0.0029182092 0.012517825 0.00022766173
0.011961385 -0.007990328 -0.02148668 -0.017581388 0.019877909 0.011340494 -0.015685447 -0.011538724
-0.009843822 0.011636817 0.022212908 -0.0016398681 -0.021133507 -0.01661516 -0.0048632794 0.014049744
0.015391732 -0.00951709 -0.009510039 -0.016351629 -0.0064437864 -0.016950095 -0.004282226 -0.01126198
-0.008275691 0.00017147488 0.013654767 -0.029560203 -0.0077122445 0.01492932 -0.02492146 -0.024641808
0.014217478 0.024949115 -0.016979631 0.016478045 -0.018259648 0.004275097 -0.038778476 0.02257368
-0.019778874 0.011439688 -0.0038797646 -0.028597672 -0.018611645 0.019766714 0.008880788 -0.01580191
0.020411203 0.019261157 0.016245665 -0.015617299 0.003843443 0.024417453 0.011670241 0.0020039994
-0.011266889 0.022601975 0.02226673 -0.0039049236 0.011317544 -0.01722279 0.018224185 0.01982624
-0.005777289 -0.009308985 -0.0054534716 0.01860263 0.0074966415 0.000424818 0.0061996495 0.018171957
0.0063654934 -0.009908717 0.0015002596 -0.008831538 -0.013259725 -0.009007614 0.023411712 -0.014129818
-0.006525872 0.0055925413 0.009119536 -0.0019002762 0.011094693 0.015643558 -0.01211563 0.008066127
-0.021838862 -0.010710644 0.016071713 -0.012834118 0.01954732 0.016129004 0.014603151 -0.025422137
0.0043971655 0.006124018 0.013140671 0.012389126 -0.014704104 0.012010902 -0.0018725017 -0.011167505
-0.015631244 -0.017054114 -0.025554512 0.0030813108 0.0056292336 -0.0101464875 0.0073829135 0.03364882
-0.012616181 -0.01871962 -0.016835842 -0.008144471 -0.012757737 0.018911583 0.004959457 -0.008115071

net.2.weight f4 [256, 256]
00000000: 7c7c d5bc bb9c 1cbe 5c6c 51bc 4fa8 68bd
00000010: 2ba1 033e 94f7 653d 8043 02bd 1df8 b7bd
00000020: 72ff a33d c38d 033c a459 13be d507 e93d
00000030: 6a55 ba3d 7738 123e cb53 14be da67 223c
00000040: 0c22 d93c 5f20 ae3d 9edf 4abd 6067 033e
00000050: 0361 1b3d a089 59bd 2371 313e bf92 2cbe
00000060: c3c5 e23c 67ae a8bd b250 04be e8a9 f93d
00000070: c611 09bd d2ef cebc 6200 d83d 67b7 543d
00000080: af64 35bd fcb1 b93d 92dc 07be 01ef 473e
00000090: 3a69 503d 7df2 8bbe f4cf 13bd b88c febc
000000a0: 29c0 dd3c 0162 96bd c577 76bd ac51 b93b
000000b0: 3aa0 683d 311e c9bd f0bf 733d c5e4 c3bc
000000c0: b736 013d 1dce 69bd 6273 ccbc 8002 22bd
000000d0: 254b 543d 0ced 1bbe 9982 153e 5f7f 0e3d
000000e0: 2596 793d 6027 1cbd 94af b83c 4be8 a83d
000000f0: d666 f1bd 2a74 0d3e 05fd d53d 6c57 193c
00000100: 3d41 d0bd 1282 90bd 7351 963d d119 dd3d
00000110: ff50 153e 7056 37bd 7ff9 1e3d e7a8 d3bd
00000120: 64e5 93bd c782 213d 0a44 01be a628 99bd
00000130: f590 c53d 5e54 6038 e31f efbc 027b 80bd
00000140: 54fe a0bd 846a f9ba fa34 733d d3b8 0d3e
00000150: c44d be3d c86f 9d3c 7de9 5f3d 7748 3e3c
00000160: 667a 033e f7cb a13d 55ea 4ebd 6f71 ac3d
00000170: 146f 06be e245 d3bc bf75 163b 8c55 653d
00000180: ba72 01bd 7d1d 14be 1741 a13c 018b acbd
00000190: e235 33bd 7e10 f3bd 24b9 ce3d 9a32 aeba
000001a0: 7527 12be 9873 d8bd fe46 093d 500b 8dbd
000001b0: 2962 0d3e 69da 23be f29a e2bd 12b8 08bd
000001c0: ac70 8f3c 7bb5 a3bc 6fec 6ebc 222e 50be
000001d0: 8012 b3bd 2a33 ab3d 4a8a 3fbe c6e6 c4bd
000001e0: e157 f63b 8063 31bd 7b09 0e3e 761d 3dbd
000001f0: a968 743d 8152 b03d 4efb 0cbe e4db e9bd
00000200: 8b23 fabd f43f e93c cfc2 32bc be82 18be
00000210: 55fa 9abd 6967 aa3c 49cb ca3d d24d 693e
00000220: d4e0 c63c 232f bdbd f65b 0e3c 26f4 f6bd
00000230: 3953 f6bd 02c5 a33d fac5 bb3c cf32 853d
00000240: d6ef de3d 146a 203e 9b9d da3d c579 063e
00000250: e01f e93d 0181 fabd 7368 2bbd ec89 c0bd
00000260: c2fb f33d 5991 323e 4029 8ebc 6bcb 02be
00000270: 2c59 df3d 8dad 46bd 7c78 e2bc 9756 413d
00000280: d654 983c 9111 033d ab4f d5bd 2b91 d8bd
00000290: bd48 a6bd 2dab 0abe 6835 233e 6d31 f73c
000002a0: 71b4 613d 1b38 49bd df4b 73bc 4ac9 c33d
000002b0: b86e 46bd b882 14be 0287 773c e9d7 9fbd
000002c0: 832b 5c3d 8f81 393d bcec 1abe c6a2 1e3d
000002d0: c645 463e 0467 65bd b824 03bc de2c 1cbd
000002e0: 0390 263d 873a 38bc 2c97 ebbd ab3c a33d
000002f0: 27cb e9bd 91cf e33d 1875 443b b339 a43c
00000300: 3d79 a4bd 8535 133e 0f34 973d 4e7d 5cbc
00000310: 09ff 23be d8bf 86bd 0080 c13d f7f6 153d
00000320: 7972 ddbd b8c7 08be 8aef f2bd 8522 2cbd
00000330: d936 083d 50e3 e4bc 7202 10be f87d db3d
00000340: 3f63 103e 15a2 8abc 6807 183e 6b33 163e
00000350: de06 723d 4f64 f73d 9a2a c3ba 4575 82bd
00000360: ad73 80bd a56b d33d c14a db3d 0742 1bbd
00000370: d9bb 59bc f0b4 1cbe 9b70 e33c 4b99 43bd
00000380: ac3b c33d 048c 81bc 064e 073e 9afb 2cbd
00000390: 5e66 a73d 8852 00be 200c 6f3d 23bb 54bc
000003a0: 3afb 203b 7b4c f3bc c872 083e 91ce 20bd
000003b0: 01d4 dcbd 18bd 12bd b4db a5bd 8ae3 0dbe
000003c0: 5b2f 623b 33c5 fbbc 2378 0d3e fed4 25bd
000003d0: 3f79 0f3c 4f7e 933b 8126 35bd a4dc 58bb
000003e0: 65f5 023e 505e d93d 68ef de3d 5773 183e
000003f0: 4bfd 043e c653 693d 3205 bfbd 40fd f5bd
-0.026060335 -0.15294163 -0.012782183 -0.056801137 0.1285445 0.056144312 -0.031802654 -0.08982871
0.08007707 0.008029404 -0.14389664 0.11378447 0.09098323 0.14279352 -0.1448509 0.009912455
0.026505493 0.08502268 -0.049529664 0.12832403 0.037934314 -0.053109765 0.17328314 -0.16852854
0.02768219 -0.082363896 -0.12921408 0.1219061 -0.033464216 -0.02526084 0.10546948 0.05193272
-0.044285472 0.09067151 -0.13267735 0.19524767 0.050881602 -0.2733344 -0.03608699 -0.03107296
0.027069168 -0.073429115 -0.060172815 0.005655488 0.05679343 -0.09820212 0.059509218 -0.023912797
0.03154632 -0.05708133 -0.024957363 -0.039553165 0.051829476 -0.15227145 0.146006 0.03478944
0.060934205 -0.03812349 0.02254466 0.08247431 -0.117871925 0.13813844 0.1044865 0.009359222
-0.10168693 -0.07056059 0.07339754 0.1079594 0.14581679 -0.044760168 0.038812157 -0.1033495
-0.07221487 0.03943136 -0.12623611 -0.07478456 0.09646789 5.3484335e-05 -0.02919001 -0.06273462
-0.07861009 -0.0019028937 0.059376694 0.13840036 0.09292176 0.01921834 0.05466603 0.011613957
0.1283966 0.07900231 -0.050516445 0.08420073 -0.1312831 -0.025790159 0.0022958366 0.055989787
-0.031603552 -0.14464374 0.019684358 -0.084249504 -0.04375256 -0.1186838 0.100939065 -0.0013290227
-0.14272864 -0.10568923 0.03351497 -0.06886923 0.13806976 -0.16001286 -0.1106471 -0.033378668
0.01750978 -0.019983998 -0.014582737 -0.20330098 -0.08743763 0.08359368 -0.18705097 -0.09614329
0.0075178 -0.04330778 0.13870804 -0.046170674 0.059670124 0.08609486 -0.1376774 -0.11418894
-0.122138105 0.028472878 -0.010910704 -0.14893624 -0.07567278 0.020801263 0.09902055 0.22783592
0.024277128 -0.09237506 0.008688917 -0.12058286 -0.12027592 0.07996561 0.022921551 0.065038316
0.10885589 0.15665466 0.10674592 0.13132389 0.11383033 -0.12231637 -0.041847657 -0.094013065
0.11913253 0.17438258 -0.017353654 -0.1277291 0.1090568 -0.048505355 -0.027645342 0.04720172
0.01859514 0.031999175 -0.10415586 -0.105745636 -0.081193425 -0.13541861 0.15938342 0.030174935
0.055103723 -0.049125772 -0.014849632 0.09559877 -0.048445433 -0.1450299 0.015107872 -0.078048535
0.053752434 0.045289572 -0.1512937 0.03872945 0.19362554 -0.056006446 -0.00800436 -0.038128726
0.040664684 -0.011244423 -0.11503443 0.07970556 -0.11415701 0.111235745 0.002997702 0.020047044
-0.08030937 0.14375885 0.07382976 -0.013457609 -0.16015257 -0.0657956 0.09448242 0.036612477
-0.108128496 -0.13357437 -0.11862095 -0.042025108 0.03325543 -0.027940422 -0.14063433 0.10717386
0.1410036 -0.01692299 0.14846575 0.14668052 0.05908858 0.12079679 -0.0014890016 -0.06370024
-0.062720634 0.10323266 0.107076176 -0.037904765 -0.013289415 -0.15303397 0.027763655 -0.047753613
0.09532866 -0.015813835 0.13213357 -0.042232133 0.08173822 -0.12531483 0.058361173 -0.01298407
0.0024563805 -0.029699555 0.13325036 -0.039259497 -0.10782624 -0.035824865 -0.08098546 -0.1385633
0.003451309 -0.03073368 0.1381536 -0.04048633 0.008756935 0.004501141 -0.044226173 -0.0033090496
0.12788923 0.10613692 0.10885507 0.14887749 0.12987249 0.05696466 -0.09327163 -0.12011194

net.2.bias f4 [256]
00000000: f8db 3ebc 1b4f bc3b 0d07 fe3b 74b5 4ebc
00000010: 6c80 cc3b 9365 e53b 6f4c 393c 9f35 fdbb
00000020: 12d9 14bb 6bc9 03bc 5d87 d53b f0d1 45bc
00000030: c7b0 22bc 8732 0e3c 233b 1e3b f9c0 083c
00000040: 8da0 85bc 7e54 b43c 0d96 cf3b 047c 1ebc
00000050: 0bc7 e8bb ed8f d23b 8262 033c cf6f e93b
00000060: 9ab2 a5bb 38ab 3a3c 3824 19bc effc bc3b
00000070: 5b81 f6bb b06d 5bbb 0a57 bcbb 5f8f 003c
00000080: a21b fabb 5a65 08bc 8a19 093a e632 aa3c
00000090: 07db fa3b 98fa 2c3c e0bc a2bb f1c0 2fbc
000000a0: f5b8 11bc bee2 bb3a f966 0e3c c61e ac3b
000000b0: 0ca0 dd3b 7e3d e9bb bcd2 efbb 7c2a dd3b
000000c0: 34e3 f4b6 c817 bfbb 47b5 c7b9 40bd b03b
000000d0: f65e df3b b8f2 e6bb 38d1 0f3c dd37 cebc
000000e0: 3d17 71bc 1939 0dbc d160 cdbc 7d9b 9d3b
000000f0: 8e60 6bbc 983a bcbb a5bb 4a3c da15 6a3c
00000100: bc27 7b3c d33d 08ba e09b 0cbb 5332 0e3c
00000110: 183e 313c 2c81 513c 8418 f23b 8676 e8bb
00000120: 18ce 433a a082 b5bb 68a0 adbc b2a2 9abb
00000130: 5efd 463a 0bb3 043c 68f5 afbb 1720 f8bb
00000140: 701c eebc 970a 913c b7ed fe3b d4ae ac3c
00000150: 2ddb a53c 6668 bd3b 9006 0c3c ced5 d7bb
00000160: 447e 643b c3b6 b2b9 2a5f 09bc 103a 383c
00000170: ea35 42bb ec60 c83b cd76 033d 870d abbb
00000180: e99c 8bbb 4c21 1fbc 85d8 b8bb 5564 213c
00000190: 3958 f3bb 176a c4bc 1f73 3b3c ec79 a03b
000001a0: 53fa 1a3c dd73 d53b e40e 0c3c 4937 f73b
000001b0: b9c1 f93b c9e2 953b 2702 5fbb 86a4 1e3a
000001c0: 92ed 84bc 3efc 4ebc 594c eb3b db42 19bc
000001d0: 070e d73b 7661 47bc dee7 02bc 5359 973a
000001e0: 010f 81bb 462c 453b e6db 9ebb a9da 28bb
000001f0: 9f91 0c3a 027c 0e3c 8949 ea3b ae78 053b
00000200: d467 cd3b 74d2 dfbb 0e0c b8bb a819 e83b
00000210: 66d7 f73b 7e92 cebb dc82 fcba 815d 083b
00000220: a107 fc3b 0c6c 4a3a 1274 59bb d878 083c
00000230: 6439 043c ac13 e9bb 5410 8fba dd4e cd3b
00000240: 237f b83b 8139 ff3b 7ea7 09bc abc4 30bb
00000250: 67a9 1bbc 36ec 493c f50f ed3b 672c c9bb
00000260: 82a5 c03b 5c9f 113c e786 9e3c ec8c 383c
00000270: bad1 733c 1527 ed3a e5c6 97bb 25f2 373c
00000280: 81f6 913c 2859 8d3b 081a d33b 5c4e babb
00000290: 11b4 893a 2ace ef3a de56 573c 6fb4 a23b
000002a0: 497c 41bc ca2e dcbb fe01 54bc 1fc2 37bc
000002b0: ea92 0d3c b5d9 4739 ca31 90bc 59a3 963c
000002c0: 7e68 a73c fd21 43bb 73e1 85bc 187d 323c
000002d0: b04f 4a3c 7404 27bc dcf8 38bc 14ff cb3b
000002e0: 5ff7 0fbc 46f4 b13c 7201 313b ea41 1fbc
000002f0: 79d8 00bc 0380 6c3c d623 f1bb c185 1dba
00000300: bec0 9d3c 2c52 623c d853 95bb 50d9 debb
00000310: b27b ffba 1425 f03b 145b 1a3c 7eb7 3f3b
00000320: dbc1 a0bc 7b21 41bb acd7 f53b b53e 1f3c
00000330: 662a ff3b 9004 2b3c d47c 8e3c dec5 0bbc
00000340: 37d5 ebbb 0b58 0d3b d69c 45bb f903 3cbc
00000350: e4bc faba c163 163c 25d0 193c 96f1 7f3a
00000360: f14e 3cbc 1d48 ddbb 9f5f a8b8 40af f83b
00000370: fffe d83b 6bf9 983a dd76 99bc b24e e7bb
00000380: 2e2f 493b 549e 143c 6051 f73b bb98 ecbb
00000390: e8ed 27bb 01fe 0dbc 3705 903c 1f00 94bb
000003a0: 8470 223c 988d 27bd b34d 62bc 35e1 ccbb
000003b0: 3b18 ec3b 5a67 e1bb 71f9 453c 5299 873b
000003c0: cf49 e4bb 4d2b 48bc f95f 3abc ecc3 b53b
000003d0: f8fd d339 adec 2b3c c2eb efbb 9339 c6bb
000003e0: 1f13 c8bb 84b1 0e3c 210b 413c 2f41 37bb
000003f0: 9d17 acbb ad9a 3f3a ddb5 f9bb 1b07 f6bb
-0.011649124 0.005746735 0.0077523054 -0.012616504 0.006240895 0.007000634 0.011309727 -0.0077273394
-0.0022712392 -0.008043627 0.0065163807 -0.012073979 -0.009929842 0.008679039 0.0024144135 0.0083467895
-0.016311908 0.022012945 0.006335026 -0.009673122 -0.007103806 0.0064258487 0.008019092 0.0071239243
-0.0050566914 0.011393361 -0.009347014 0.0057674567 -0.0075227446 -0.0033482127 -0.0057476806 0.007846682
-0.0076326886 -0.008324945 0.0005229941 0.020776223 0.0076555046 0.010557793 -0.0049663633 -0.010727153
-0.008894195 0.0014334542 0.008691543 0.005252692 0.006763464 -0.007117926 -0.0073188227 0.0067494493
-7.2982166e-06 -0.0058316924 -0.000380913 0.005393654 0.00681674 -0.0070479773 0.008777909 -0.025173122
-0.014715013 -0.00861957 -0.02507058 0.0048097954 -0.014366282 -0.0057442896 0.0123738395 0.014287436
0.015329298 -0.0005197201 -0.0021455213 0.00867899 0.010818027 0.012787145 0.0073881764 -0.007094207
0.000746937 -0.0055392534 -0.021194652 -0.004719102 0.0007590855 0.008099328 -0.005369831 -0.007572185
-0.029066294 0.017705245 0.0077798027 0.021079458 0.020246113 0.0057802675 0.0085464865 -0.006586767
0.00348653 -0.00034086974 -0.008384505 0.011244312 -0.0029634186 0.0061150696 0.03209572 -0.0052201184
-0.0042606485 -0.009712528 -0.0056410455 0.009850581 -0.0074262884 -0.023976369 0.011441021 0.0048973467
0.009459096 0.006514056 0.008548472 0.0075444323 0.0076219705 0.004574154 -0.0034028383 0.00060517376
-0.016226564 -0.012633381 0.007180732 -0.0093543185 0.0065629515 -0.012169233 -0.007989852 0.0011547006
-0.003938556 0.0030086203 -0.0048479913 -0.0025765097 0.00053622754 0.008696558 0.0071498794 0.002036612
0.006268481 -0.006830508 -0.0056166714 0.0070831366 0.0075635193 -0.0063040843 -0.0019265073 0.0020807686
0.007691339 0.0007721789 -0.0033180756 0.008329593 0.008070324 -0.007112941 -0.00109149 0.0062655048
0.0056303903 0.0077888374 -0.00840175 -0.0026972692 -0.009500838 0.0123243835 0.0072345682 -0.0061393264
0.005879105 0.008888092 0.019351436 0.011264067 0.014881546 0.0018093312 -0.0046318644 0.011227165
0.017817738 0.004313607 0.006442312 -0.0056856107 0.0010505934 0.0018295695 0.013143269 0.004965357
-0.011809417 -0.006719445 -0.012939928 -0.011215716 0.008640984 0.00019059221 -0.017601866 0.018388437
0.020435568 -0.0029774897 -0.016342854 0.0108940825 0.012348101 -0.010193933 -0.011289801 0.006225476
-0.008787005 0.021722924 0.0027008918 -0.009720305 -0.007864111 0.014434817 -0.0073590083 -0.00060090056
0.019256946 0.013813537 -0.004557114 -0.006800808 -0.001949182 0.007328639 0.009421129 0.0029253657
-0.019623687 -0.0029469419 0.0075025167 0.00971954 0.0077870367 0.0104380995 0.017393507 -0.008531062
-0.007197048 0.002156737 -0.0030153296 -0.0114755565 -0.001912978 0.009179057 0.009388004 0.0009763477
-0.0114934305 -0.0067529813 -8.028675e-05 0.007589251 0.006622195 0.0011671012 -0.018733436 -0.0070589418
0.0030698287 0.0090709515 0.0075475425 -0.0072203553 -0.002562398 -0.008666516 0.017580612 -0.004516616
0.009914521 -0.04090652 -0.01381247 -0.0062524327 0.007205037 -0.0068787755 0.012083397 0.0041381503
-0.0069668065 -0.012217355 -0.011375421 0.0055470373 0.00040434278 0.01049344 -0.0073218057 -0.006049344
-0.006105795 0.008709315 0.0117824385 -0.0027962436 -0.0052518384 0.000730912 -0.0076205567 -0.0075081713

net.4.weight f4 [256, 256]
00000000: 0787 e53d 4907 153e 6e7a af3d 1ffa 933c
00000010: 09c2 1f3e 4707 efbc dd88 453d 1769 053e
00000020: 06d7 41bd 25aa 1cbe 4f7d d93d b0fe 003e
00000030: 3159 193e 2f8a 363e ad8e a6bd af98 993c
00000040: 7213 2abe c958 12be 5dd7 51be 1c81 89bd
00000050: f63d 993b 7526 82bc 2681 e6bd b70f 0d3e
00000060: ffef 113e 68cb 6c3c 0e36 c7bd e135 93bb
00000070: a3c4 703b 70cb 08be ade3 303c ad6b c5bd
00000080: f6cd 413e 0af3 09bd 1f86 48be 4be8 a8bd
00000090: 4f9e fcbd 01d6 8e3d 615e db3c 3bcc 8e3d
000000a0: cfd4 cd3d a651 19be e753 a23d ede5 f53d
000000b0: d1af 2e3c 9d35 d2bd dfdc d2bd 9ba7 3bbe
000000c0: 3ced 07be 840e cf3d 2102 febd 7d19 08bd
000000d0: 303c a0bd 98b2 67bc 547b 99bd ded2 fbbb
000000e0: b6b9 5abe 2def e53d 49ea d0bd 5206 183d
000000f0: 9969 033e 410c a13d e49f e5bd e6bc c23d
00000100: 4619 913d c466 103e 2091 ba3d 05bc e33c
00000110: 5423 9ebd cd2c a13d 3f2c 8b3d 2ef6 053e
00000120: dc75 84bd 2ec9 83bd dd81 0b3c a638 263e
00000130: f5b7 a33d d34d e8bd f0d1 32be e5d9 e7bd
00000140: 20ef 173e 9154 13be fa84 893d a361 073e
00000150: 3ae3 873d f5be a13d 581e 723c d378 d53c
00000160: 4657 55bc c6a9 903b 106c 58bc a797 abbc
00000170: fdc9 3a3d 020e 04bb b166 bb3d a584 ebbb
00000180: 3d5f c13d 4692 1abc 79f8 7e3d 75ca 11be
00000190: 4c62 0d3e 6b54 dcbb 8e4a 603e 9da4 1dbd
000001a0: ee44 05bd 0d08 ecbd 9f96 1abd 0897 873d
000001b0: 4715 7cbd b032 fdbb 2962 223e 2a60 353e
000001c0: ffa7 943d cbfc 58be 281e d93d de4d 89bd
000001d0: 9210 243e e4ea 28be c800 abbd 9f54 cbbd
000001e0: 0109 d5bd e4a1 343d a700 d5bd d054 d2bc
000001f0: 0b72 a83d 0606 a7bd 74cd 383c 0f40 1ebd
00000200: 00be 033d 95c6 cb3c 8587 05be 8992 39bd
00000210: b037 d93d cdf1 aa3c 095a 2e3c 3f55 0bbe
00000220: 809a 32bd d6ce 98bd 83a7 093e 764e aebd
00000230: 7b3c 22be bc02 1f3e 1155 83bd 36f0 223d
00000240: d3cb 073e 24fc bf3d 2767 e3bd 01db 793b
00000250: c752 d43d b5c9 173e a0b8 943d f0f5 70bd
00000260: 0caa b23c 37ed 9fbd 5dea 87bd 1913 af3d
00000270: 4c2a 85bd ed4b 8d3c b2c2 3dbd 10d3 833d
00000280: a8d3 b13d cea2 96bd ded9 9a3d feed bf3d
00000290: 5025 ebbd 5e58 8dbc 4b91 56bd 91bb c4bd
000002a0: 10e3 bd3d 73fe 21be da76 00be 862e 913d
000002b0: 4519 923d bcd6 35bc 08aa e33d 280f 92bb
000002c0: c458 e5bd 7e8f 1ebd d2ee 00bc 6b72 72bd
000002d0: 5bd2 86bc cd13 d23c ede6 bcbd 88af 513d
000002e0: d2a2 363d 6fb0 1abc 6855 ef3d 0f0b 41bd
000002f0: 545e 733d f586 26bd c08d 0f3e 7f3b 91bd
00000300: 1498 5abd 576a d7bc a06e 073e d3ab 19be
00000310: ac10 b33d a2b6 aabb 5abe ed3b a7d8 c0bd
00000320: b96e 7a3d 9a96 ebbd 4da4 8abd fa34 b8bd
00000330: 0416 fdbc f5e4 5e3c 438e a93b 089f 88bd
00000340: 8b24 b23d d514 1abe 3dc6 e7bd c27d 62bc
00000350: 98c1 db3d b0af 1cbe cc53 df3d aff8 3abd
00000360: cf5b 11bc 386a 463d f634 783d a73c 863d
00000370: f96a 943d c3c0 94bc c84f 123e 17f9 05be
00000380: 3106 c4bd 982c 153e 7456 3f3d 0f04 2e3e
00000390: 35bf 67bc 0a06 9a3c 61a3 703d 6ebd 8fbb
000003a0: 091f 03be b32a 96bd 401c 2a3e 8f91 07be
000003b0: 567f ddbd 5bfa 7c3d 19e4 ccbd e18e fbbd
000003c0: fbe2 7c3d 40a2 91bb f582 72bb b165 52be
000003d0: c40b ed3c ab3e 2f3e 0ae6 163d 86c3 20be
000003e0: 5dd1 13be 4738 853d 05ff 303d 3d1a 983d
000003f0: 6721 e4bd d723 09be c6ba fc3c 3bfa 9c3d
0.11207395 0.1455356 0.085682735 0.018063603 0.15601362 -0.029178275 0.048226226 0.1302837
-0.047324203 -0.1529928 0.10619604 0.12597156 0.1497543 0.1782615 -0.08132682 0.018749563
-0.1660898 -0.14291681 -0.20492311 -0.06714079 0.004676576 -0.015887478 -0.11255102 0.13775526
0.14251707 0.014452793 -0.09727107 -0.004492507 0.0036738298 -0.13358855 0.01079647 -0.09639678
0.18926224 -0.033679046 -0.19582413 -0.08247431 -0.123348825 0.06974412 0.026778402 0.069725476
0.10050356 -0.14972553 0.07926159 0.120067455 0.010662035 -0.10264132 -0.10296034 -0.18325655
-0.13274091 0.101101905 -0.1240275 -0.033227433 -0.0782398 -0.014141701 -0.07494226 -0.0076850494
-0.21359906 0.1122726 -0.10200936 0.037115403 0.12833251 0.07863665 -0.11212137 0.09508686
0.07084899 0.14101702 0.09109712 0.027799616 -0.07721582 0.07869873 0.06795549 0.13082191
-0.064677924 -0.06434856 0.008514849 0.16232547 0.079940714 -0.11342969 -0.17462897 -0.11320857
0.14837313 -0.14387728 0.067148164 0.13220839 0.06635137 0.0789775 0.014777742 0.02605859
-0.013021296 0.00441477 -0.013209358 -0.020946337 0.045602787 -0.002014995 0.09150446 -0.0071874433
0.094419934 -0.009434288 0.06224868 -0.14237387 0.13807029 -0.0067239306 0.2190344 -0.038487066
-0.03253644 -0.11524973 -0.0377413 0.06620604 -0.06154373 -0.0077269897 0.15857758 0.17712465
0.07258605 -0.21190183 0.10601455 -0.06704305 0.16021946 -0.16495854 -0.083497584 -0.099282496
-0.10402108 0.044099703 -0.10400515 -0.025675207 0.08224877 -0.08155446 0.011279453 -0.03863531
0.03216362 0.024874965 -0.13039978 -0.045305762 0.10606325 0.020867253 0.010641583 -0.13606738
-0.043604374 -0.07461326 0.13442807 -0.08511059 -0.15843384 0.15528387 -0.064127095 0.039779864
0.13261347 0.09374264 -0.11103659 0.0038124921 0.10367351 0.14823039 0.07261777 -0.058828294
0.0218096 -0.07808917 -0.06636498 0.085485645 -0.06502208 0.017248118 -0.046328254 0.06436741
0.08682948 -0.07355271 0.07561086 0.09371565 -0.11481726 -0.01725405 -0.052384656 -0.09606088
0.09271824 -0.15819721 -0.12545338 0.07088952 0.07133726 -0.01109856 0.11116415 -0.004457373
-0.11198571 -0.038711064 -0.007869439 -0.05919115 -0.016457727 0.025644207 -0.09223733 0.05119279
0.04458887 -0.009441479 0.11686212 -0.047129687 0.05941613 -0.04065605 0.14018917 -0.07091426
-0.05336769 -0.026295824 0.13225794 -0.15006952 0.08743414 -0.00520976 0.0072553577 -0.09416323
0.06114075 -0.11503334 -0.06769619 -0.089944795 -0.030894287 0.013604392 0.0051744296 -0.06670958
0.08698376 -0.1504701 -0.11317108 -0.013823928 0.107302845 -0.15301394 0.10904655 -0.04564732
-0.0088719865 0.04844114 0.060597382 0.06554537 0.07246966 -0.018158322 0.14288247 -0.13083301
-0.095714934 0.14567792 0.046713307 0.16993736 -0.014144708 0.018801708 0.05874956 -0.0043865955
-0.12804808 -0.07332363 0.16612339 -0.1323912 -0.10815303 0.061762195 -0.10004444 -0.12283111
0.061739903 -0.0044443905 -0.0037004326 -0.20546605 0.028936274 0.1711375 0.036840476 -0.15699586
-0.14435335 0.06504875 0.043211956 0.074268796 -0.111391835 -0.13392578 0.03085078 0.07664915

net.4.bias f4 [256]
00000000: 0f43 e6bb fd28 dabb 33c4 9fbb def5 49bb
00000010: 6de5 32bc f814 06bc 8e11 033c a594 c53b
00000020: 3070 8dbb 9920 953b 5f34 373c 0dee e33b
00000030: db3f c6bb 48a2 093c 206e 08bc 7bbc a2ba
00000040: f260 40bc 9f97 bd3b 3849 dabb c510 d53b
00000050: 0353 f2bb f5a1 05ba 4d60 6dbc 486e 76bc
00000060: 8a06 ed3b 6a80 f73b 4e3d b93b 2e9a b83b
00000070: 02a4 f13b f4c8 8abb 4850 0d3c aa90 b3bb
00000080: 590d 41bc 7b2b 083c 6c26 383c 6b33 203c
00000090: f452 ff3b 4f09 813b 0d25 03bc d442 393d
000000a0: dbca e3bc a74b 313c 8090 793c d37b 003c
000000b0: ede5 47bd 3589 17bc 4274 2c3c ef82 253c
000000c0: 7163 92bb 55b4 74bc 35f4 f5bb 9628 ac3b
000000d0: 1f6e c4bb 08f8 ea3b 2816 e03b 7f3a d2bb
000000e0: 313f 3e3a af4b dbbb 2734 e2bb 6eae 05bc
000000f0: 8dc5 0d3c 3b9b f13b 10b6 0e3c 46bc 30bc
00000100: aac3 e33b 19c9 c7bb 932f 36bc cf0e 023c
00000110: b5b3 1d3c e574 2bbc b573 3a3b 5ac3 123c
00000120: 35dd 35bc 67bc b03c 2c65 dd3b 1565 46bc
00000130: 01e3 f4bb 6e27 58bb b413 fabb fa5a 50bc
00000140: df63 f63b 03cc 383c 8ac3 423a 00a3 01bc
00000150: ad0d bdbb 997b da3b 9f59 d1bb cdb8 7f3b
00000160: 7d85 0d3b 7744 733c 47c1 fdbb e2b7 993b
00000170: 33ef 9e3b 11ca da3b f1f5 9dbb 3577 003c
00000180: 699a 4e3c 56b2 043c 7694 b3bb 769f 8a3b
00000190: 5500 ef3b 4f18 4a3c 7a84 dc3b 7ef8 f03b
000001a0: 9546 efbb d658 f8ba b487 75bb 385b 093c
000001b0: eb37 00bc 5da8 f9bb f1ca cfbc 5494 d43b
000001c0: b19e 1b3b e9a1 b63b 324d 393c 2006 a3bc
000001d0: 006f aa3c 6970 17bc e5ef e93b 4c4f f3bb
000001e0: 30c8 843b eb37 d83b 53f1 0fbc a171 b53c
000001f0: 7ca4 d43b 3a1f bc3b ed96 c63b 7ffd 01bc
00000200: c18d a9bc 6fd1 ea3b b848 17bc 1d6e 03bc
00000210: 1c47 1a3c 3c2e 51bc 57ef 0abc 201b e5bb
00000220: 7581 1bbc 6744 08bc ac3d 013c d139 5dbc
00000230: f4d1 9fba 5020 21bc d322 7b3c b2aa 4d3c
00000240: d530 e13b a98a 08bc 730e debb 3fdb 80bb
00000250: bb93 183c 5927 6e3d baca 813b fdd1 eb3b
00000260: d289 143c d217 a8bb eda9 fe3b cd79 563c
00000270: a8ee 18bc 257e 09bc c4b2 a33b 7f10 dfbb
00000280: 9749 183c 6d3c 28bc 1351 9dbb 586e f03b
00000290: 0ea5 633c 5571 083c ef0b 263b a29d 06bc
000002a0: f95d e03b 931b edbb 445f fdbb 2421 8ebb
000002b0: a301 65bc 9870 21bc 4de5 ebbb fe68 13bb
000002c0: 735d 013c 5bd0 3fbc c0fb 98bb ac41 ddbb
000002d0: fd90 cc3b dca8 063c 66a8 9fbb 6b9e ce3b
000002e0: 8fa9 e23b 14c7 adbb cfcc d5ba c7cf 013c
000002f0: c20a f33b 94b8 473c 1fde b73b f13a dfbb
00000300: 9265 8ebb 49b4 0fbc 03f4 073c 412b 083c
00000310: 6180 fe3b 8384 c33b dc29 8cbc 6a90 4ebc
00000320: 4d47 933b bee1 f43b b250 f7bb 2065 f23b
00000330: e075 fabb c363 efbb b30e 21bb 35c5 b5bb
00000340: 830c 27ba 520b 88bb b81e 0b3c 74a2 973b
00000350: 445c 31bc f4dd f23b 2fa4 94bb 7e17 8bbb
00000360: 0b82 e3bb beb9 ac3b b7a5 d2bb 3caa 013c
00000370: 38e6 763c cb1e 30bc 811e 613c 7833 0bbc
00000380: e4eb e43b 6d8a babb 3813 dd3b 0b98 38bc
00000390: 4b1e 3e3c 3e29 ef3b 02a6 c93b c9ec 2e3c
000003a0: ee1a e63b 0a9f db3b 0b9b cabb 2e39 47bc
000003b0: c468 b6bb 3022 bfbb 7b10 1f3c c646 dbbb
000003c0: 0761 fd3b eef8 b1bb d34d f9bb 4861 403c
000003d0: 7249 acbb b441 063c d24d a83b 88bb 243c
000003e0: 0a22 82bb c0ec a3bb 1757 203c 0395 9d3b
000003f0: 832d bbbb f5d4 d6bb 5cb7 c8b7 e2e6 b93b
-0.007027037 -0.006657718 -0.0048756837 -0.0030816714 -0.010918957 -0.00818371 0.007999791 0.0060296827
-0.0043163523 0.004551005 0.01118192 0.006955868 -0.0060500926 0.008400507 -0.008327037 -0.0012415791
-0.011741864 0.005785897 -0.0066615604 0.006502243 -0.0073951497 -0.0005097681 -0.014488292 -0.015040942
0.0072334455 0.00755315 0.00565306 0.005633614 0.0073742876 -0.0042353813 0.008625098 -0.005479892
-0.0117829675 0.008311148 0.011239629 0.009777884 0.007791871 0.0039378772 -0.008004439 0.045229748
-0.02780669 0.01082126 0.015232205 0.007842022 -0.04880326 -0.009249021 0.010525765 0.010102018
-0.0044674207 -0.014935573 -0.0075059184 0.0052538617 -0.005994573 0.007170681 0.0068385787 -0.0064156647
0.0007257341 -0.006692372 -0.0069031897 -0.008159263 0.008653057 0.0073732412 0.008710399 -0.010787075
0.006950815 -0.0060969708 -0.011119741 0.007938101 0.009625365 -0.010464882 0.0028450314 0.008957708
-0.011100103 0.021574212 0.0067564454 -0.012109061 -0.00747335 -0.0032982486 -0.0076317433 -0.012717003
0.00751923 0.011279109 0.000742965 -0.007912397 -0.0057694525 0.006667566 -0.0063888575 0.0039020062
0.0021594458 0.014847866 -0.0077439877 0.00469111 0.004850292 0.00667692 -0.0048205783 0.007840921
0.012610056 0.008099159 -0.0054803444 0.004230435 0.0072937408 0.012334897 0.0067296596 0.0073538413
-0.007302115 -0.0018947374 -0.0037464919 0.008383565 -0.007825832 -0.0076189474 -0.025365325 0.0064874087
0.002374571 0.0055735004 0.011309909 -0.019900382 0.020804882 -0.009243109 0.0071391934 -0.0074252244
0.0040521845 0.006598463 -0.0087855635 0.022148909 0.0064893346 0.005741027 0.006060472 -0.007933973
-0.020697476 0.0071660797 -0.009233646 -0.0080218585 0.009416368 -0.012767371 -0.008479915 -0.006991759
-0.009491314 -0.00831709 0.007888239 -0.013502554 -0.0012193308 -0.009834364 0.015328127 0.012552904
0.0068722763 -0.00833384 -0.006776625 -0.003932386 0.009312565 0.058142994 0.0039609345 0.0071966634
0.009066062 -0.0051297927 0.0077717216 0.013090563 -0.009334244 -0.008391892 0.0049956758 -0.0068073864
0.009294889 -0.010268313 -0.0048009246 0.0073373728 0.013894333 0.008327802 0.0025336703 -0.0082162935
0.00684714 -0.007235953 -0.007732304 -0.0043374468 -0.013977441 -0.009853505 -0.0071989656 -0.0022493
0.007895815 -0.011707391 -0.004668683 -0.0067522135 0.00624287 0.00821897 -0.0048723696 0.006305506
0.0069171856 -0.005303273 -0.0016311648 0.007923073 0.007417054 0.012190003 0.0056111957 -0.0068124463
-0.004345604 -0.008771011 0.008297923 0.008311094 0.007766769 0.0059667244 -0.017109804 -0.012607673
0.0044945837 0.0074731996 -0.0075474614 0.007397309 -0.0076434463 -0.0073055937 -0.0024575412 -0.0055471906
-0.0006372409 -0.00415174 0.008491211 0.00462752 -0.0108252205 0.007411713 -0.004536174 -0.004244744
-0.0069429926 0.0052711656 -0.006428446 0.007914122 0.015069537 -0.010749529 0.013740183 -0.008496158
0.006986128 -0.005692771 0.006746676 -0.011266719 0.011603902 0.0072986176 0.006153823 0.010676571
0.0070222532 0.0067023085 -0.0061830333 -0.012159629 -0.0055666883 -0.005832933 0.009708519 -0.0066917865
0.007732514 -0.005431286 -0.0076081543 0.011741944 -0.005257779 0.008194376 0.00513623 0.010054477
-0.003971343 -0.005002588 0.009786389 0.0048090233 -0.0057122125 -0.006556148 -2.3927241e-05 0.0056732753

net.6.weight f4 [256, 256]
00000000: 40e2 21be 115a e3bd 0712 c1bd 7a6a 93bd
00000010: a390 253e d235 5b3c f96f 053e 9b55 15be
00000020: ea00 0cbe 4556 b1bd 39a9 e33d a9e4 793c
00000030: 1671 6cbd 8d1c d43d d03c b73d 8899 f9bb
00000040: 75c1 d83c 0b84 38be b4e1 723d f619 e93d
00000050: 2951 3038 14b8 203e f3f9 c93d 29a8 243e
00000060: e9a6 a4bc 4171 11be 47bf 3b3e 7505 003e
00000070: 21d9 62be 17e5 303d 343e edbd cc52 053d
00000080: 800a 073e 9142 97bd 5d12 1b3e 7d0c d8bc
00000090: dd99 ce3d c810 07be d174 933d 229e fcbd
000000a0: 763c e83d f4b9 10be 3385 81bd d25e ccbd
000000b0: aafc 143e c8cd 07be c7a6 38bd 8c59 793c
000000c0: e856 1f3e 663a 29be 2391 21be f836 173c
000000d0: 52e6 163d 41b6 74bd 4cf3 273e 4e5d 68be
000000e0: d80d c23d ce1b 4e3d 1ca1 d2bd 5742 2a3e
000000f0: 6be2 063e 1bdc 05be 3066 0fbe 235b 1b3e
00000100: ada5 793d 0a34 5dba a9b7 a33d f34e a03c
00000110: 0a49 bc3d eac3 41bd 91c1 d0bd 32bb e8bc
00000120: 5422 1ebe fa34 5d3d 1709 a83b 4a28 0f3e
00000130: 1412 f83d 622e 3bbd 2ac4 bb3d b4ad b2ba
00000140: 3d5d 023e 602b 0abe a61c 08be beb4 ac3d
00000150: 3e2d bfbd 609e c43b ee0c cfbd 8c74 873d
00000160: d285 293d adc2 67bd dfb2 37bb 62a4 cb3d
00000170: 3925 2f3e aec8 973d e2e9 aebd 0914 833c
00000180: febe c6bc a936 5d3d 738e 31be 20c0 243e
00000190: ccc0 c83d 7e4d bfbd 0119 10be 243f 393e
000001a0: 901e 4438 68c5 99bd 81b2 573d 6764 0a3e
000001b0: 31fb 703c 4c89 0abe 347e 693d a93e 7c3d
000001c0: 5d06 d5bc f687 01bd 5cdd b3bd 3aa4 b8bd
000001d0: 6cd9 883d 7dc3 cf3d b03d c4bd 0ba6 d53d
000001e0: 0126 e53d 94e6 623d af2e 24bd 646d 0e3e
000001f0: b572 403d 18cb 203e b7d4 2b3d 034b fcbd
00000200: c7d7 153e 148d ad3d d3b8 873d 081d 4e3d
00000210: 41cc 0bbe ad11 5abe 298e 28be 7ffb ed3c
00000220: 2e0e 00be b9e6 76bd c574 be3c ec74 33be
00000230: 057c 993d a7ae c0bd 395a 2dbe 8c30 c93d
00000240: 54a6 47bd 0bb0 8e3d 68be b7bd 24ff ad3b
00000250: 8223 3dbe abf2 fabd 4aed 313d b0c0 bb3d
00000260: 0c73 cc3d dad9 563d 209f 993d 5dde 8d3d
00000270: a03d 393d dee1 14bd f0d7 2a3d 4f18 b33d
00000280: 69b8 3dbd 55eb 4c3d d8f5 80bd cb48 01be
00000290: b845 8abd 1159 d23d 1901 1dbe cb91 093e
000002a0: 6625 d73d 4110 4b3d 4b13 bebd 836c 953c
000002b0: eabc a33d 28ad 483d f769 623d 63e4 b2bc
000002c0: 4289 3abd 750e d03d cf8c b43d e925 b0bc
000002d0: df05 c1bd 93b7 823e 09e8 17bc 897d 30be
000002e0: e6d1 0b3e f635 0d3d 8013 8e3d 9305 48be
000002f0: f1a9 adbd 23ae cabb 0125 d0bd 7cc8 cdbd
00000300: 13a5 84bd 58da 0bbe 40c2 e33d ba26 1c3e
00000310: 836b c8bc fca4 c5bd 137a 5a3e d909 423e
00000320: 75e7 dcbd ad53 263e 2e4d 533d 1c47 f63d
00000330: d1af d2bd b01a bcbd a41d d7bd a25c 0cbe
00000340: 88ec 06be 7cb1 0cbd 3add db3d ca08 d83d
00000350: 5f42 803d 0a7e c03c 0f13 26be 3f1c a53c
00000360: a5c6 afbc 85aa aa3d b9fd 0cbe 0d2e 273e
00000370: 5d48 00be dcf4 93bd 77c4 98bd 9fcc 883d
00000380: d629 513d 0ff8 4a3d 761a a63d 943e a1bd
00000390: eada b73d e051 293d ef5f 19be c6a6 58bc
000003a0: 37cb 513c 8d7a 7dbd 0140 06be 4ade 103d
000003b0: 1720 07be 9769 2cbe 85d0 20be 80ca d6bc
000003c0: 35bd b3bd d71f 03be 45b7 833c 5434 bfbd
000003d0: 99d9 883d 17ca 273e 6136 0abe 97ea 88bc
000003e0: a97d d9bd 8273 c53b 961e a8bd 93fe 993d
000003f0: a747 fbbd 244c 59bc b694 cf3c a161 873b
-0.15808964 -0.11101163 -0.094272666 -0.07198043 0.16168456 0.013379531 0.13030995 -0.14583437
-0.13672224 -0.08659033 0.11116261 0.015252271 -0.057725035 0.10357008 0.08947146 -0.0076171793
0.026459435 -0.1801912 0.05929728 0.11381905 4.2037256e-05 0.1569522 0.09862127 0.16079773
-0.02009912 -0.14203359 0.18334685 0.12502082 -0.2215314 0.043187227 -0.1158413 0.032549664
0.13187599 -0.073857434 0.15143724 -0.026373142 0.10087941 -0.13189995 0.07200015 -0.12334849
0.11339657 -0.14133435 -0.06324234 -0.09979023 0.14549509 -0.13262093 -0.045080926 0.015219104
0.15560496 -0.16526183 -0.15778022 0.009229414 0.036840744 -0.059744123 0.16401404 -0.22691843
0.09475297 0.050319485 -0.102846354 0.16626869 0.13172309 -0.13072245 -0.14003825 0.15171485
0.060949016 -0.00084382354 0.07994015 0.019568896 0.091936186 -0.04730598 -0.1019317 -0.028409574
-0.15442783 0.0540056 0.0051280367 0.13980213 0.12112823 -0.04569853 0.09168275 -0.001363209
0.1273088 -0.13493109 -0.13292179 0.08432911 -0.09334801 0.006000325 -0.10109888 0.066140264
0.041387387 -0.05658214 -0.00280302 0.09943463 0.17104043 0.074113235 -0.08540703 0.016000764
-0.024260994 0.054007206 -0.17339496 0.16088915 0.09802398 -0.09340952 -0.14072038 0.18090492
4.6758505e-05 -0.075083554 0.05266047 0.13514863 0.014708326 -0.13528937 0.057005122 0.061583195
-0.02600401 -0.031623803 -0.08782455 -0.09015699 0.06682095 0.10144708 -0.095820785 0.10432061
0.11188889 0.055395678 -0.040083583 0.13908917 0.046984393 0.15702474 0.041950908 -0.12318995
0.14633094 0.08474174 0.06627049 0.050320655 -0.13652135 -0.21295805 -0.1646048 0.029050587
-0.12505409 -0.060278628 0.02324904 -0.17525071 0.07494358 -0.09408312 -0.16928948 0.09823713
-0.048742607 0.06967171 -0.08971864 0.005309956 -0.18470576 -0.122533165 0.043439187 0.091676116
0.09982881 0.052453853 0.07501054 0.06927178 0.045224786 -0.036348216 0.04170984 0.08744871
-0.046318445 0.050029118 -0.06296891 -0.12625425 -0.06751579 0.10270894 -0.1533245 0.13434522
0.1050518 0.049576048 -0.092810236 0.018240219 0.07995017 0.04899326 0.055276837 -0.021837419
-0.045541056 0.101590075 0.088159196 -0.021502452 -0.09424948 0.2553068 -0.00927163 -0.17235388
0.13654289 0.03447529 0.06937313 -0.19533376 -0.084796794 -0.0061853095 -0.10163308 -0.10048005
-0.06476798 -0.1365751 0.111210346 0.15249148 -0.024465328 -0.09650609 0.2133563 0.18949069
-0.107863344 0.16242857 0.051587276 0.12025282 -0.102874406 -0.09184778 -0.105037004 -0.13707212
-0.13176167 -0.03434895 0.10735555 0.105485514 0.06262659 0.0234976 -0.16218208 0.02015507
-0.021457026 0.08333305 -0.13768663 0.1632616 -0.12527604 -0.072244376 -0.07459348 0.066796534
0.05106529 0.049552973 0.08110516 -0.07873264 0.089773014 0.041337848 -0.14978002 -0.013223356
0.012804798 -0.06188445 -0.13110353 0.03536824 -0.13195835 -0.16837154 -0.15704544 -0.026219606
-0.08776323 -0.12805115 0.0160786 -0.09336153 0.066821285 0.16385685 -0.13497306 -0.016713424
-0.10619671 0.0060257325 -0.08208959 0.07519259 -0.12269526 -0.013262782 0.025339466 0.0041315113
