models/model_grayscale_1.pth (torch, 797636 bytes, 9 tensors)

net.0.weight f4 [256, 2]
00000000: aec5 833e 3e0b 63bd 17c0 23be bc13 943d
00000010: 722b abbe ccdb c93e bf93 b3be 73ee cf3e
00000020: 409a 5dbe ca2a ab3d 1815 ea3e c9ed 9a3e
00000030: 433a e7be de90 653d 7414 e03e d2b2 56be
00000040: d899 eebd e17d b9be 2e14 f7be d8d8 b8be
00000050: 2c95 913e 314a e9be 0767 33be a81d e23e
00000060: 617d d0bd d4b0 2bbe 4df1 84bd d369 fb3d
00000070: 4f69 a4bd 4199 83be fbaf 69bd e4d4 fd3d
00000080: f817 56be 4f9c d4be 2f44 51be e8bb 64be
00000090: 6b61 1bbd ceb8 10bd d4a5 b03d e89b 993d
000000a0: ea76 b13e 5ad9 91bd a07e b9be 6f50 92be
000000b0: 6369 52bd 50f5 72be 00ea 80be b503 f93e
000000c0: 86c1 dc3e f716 b4be 5f4e 38be c795 cdbe
000000d0: bc0d 563d 9ff1 95be a82e e53d cd28 f7bd
000000e0: 89e6 babe 932b 093e 0092 b5be c4de 16be
000000f0: 05c5 99be 075e d63e f262 5fbe 8cba e63e
00000100: 5c68 fdbb 88f6 04bd 9851 453e 725f 02bf
00000110: 65b3 01bf 77cc e9be 158c edbd 85a4 4fbc
00000120: 1665 e03e 06d5 b5be 90da 273e f7e8 89be
00000130: be39 c23d 877e f9be cdcb 213d f951 ac3e
00000140: d73e 1fbd 81c2 8a3e 6091 603e 800d e6be
00000150: 8df5 98be c69a fabe 49cf 8cbe dadf ddbe
00000160: e2f7 cdbe 5d44 a0be ac91 e5be 736a 2ebd
00000170: e576 00bf 225c 713e 836b 763d 8e9e 8c3e
00000180: 9d63 e33e 4551 13be 58dd 90be c064 bd3c
00000190: 5559 333e 941c b13e 285a 7abe d4d1 61bc
000001a0: 01f3 2a3e b037 53be cc07 e23e 4a3d 3dbd
000001b0: 3738 be3d bc7b fa3e faec 863d 078d 953e
000001c0: 463d c03e e1ea 7dbe cd97 be3e a3f9 c43e
000001d0: e49a 18be ace6 023f 24f8 893d 311e bd3e
000001e0: 1ec5 7bbd 49d5 4b3e 1e85 743e 2618 a9be
000001f0: 49ca bcbc 00ed bc3e c808 f83d ac8c 08be
00000200: bcde 413e d01f e93e a884 8cbe 6fc6 febe
00000210: c6f2 ad3e ce9c ef3e 2297 c93e d197 80be
00000220: 5fdf 2abe 514d 03bc cf66 d13e 397e d83e
00000230: 0c13 7c3e af55 f8bd 0c2d cebe 5806 9c3d
00000240: 555b d03e c7ec 8d3e 171f 9ebe 903f b43e
00000250: 8448 a3be 9ef6 73be 85d9 42be d652 abbe
00000260: 03dd b73e bd21 cd3e 4227 13be 2e8f 083e
00000270: f1bc a5be 36e1 463d 2709 f93d 3364 99bc
00000280: 75b4 4cbe d729 9ebe a92b 34be 4387 b83e
00000290: ee76 db3d 1af4 e23e f3a6 b73e 48d2 07be
000002a0: 386c 22be 309e 12be 681d e5be c532 2abd
000002b0: 1319 8abe 1e7e bcbe c72d 56bd 149c 913e
000002c0: 6312 663e fbc2 43be 14a0 a3be 69dd fabd
000002d0: efeb fb3e 81f1 94be 4b9e 0fbc ebfe e43d
000002e0: c5b6 083f 35aa 88be ec44 753e 98c1 9abd
000002f0: 59d8 a73d 3ad2 cb3e b09e e53e cb62 9ebd
00000300: 170a c0be 96d6 9ebe cae6 533d d7c7 953e
00000310: de89 ddbc 12e1 01bf dea9 f03e 9864 c6be
00000320: 8094 e5bd bc88 c9be 1a61 b33c 83d4 39be
00000330: 44b1 35bd ed2c b9be 95e4 5e3e 5976 b13e
00000340: 7e34 dcbe aa84 f2be d1ed 35be 4588 043c
00000350: 4d25 fd3e 7081 423e 8ae9 483e 662c a73e
00000360: 0876 753e 4237 af3e 5b40 aa3e 478b a5bd
00000370: 5659 a73e f8bf c7be afc1 a33e 912d b13e
00000380: 2d3b da3e 3453 f1bd c684 25ba e967 ebbe
00000390: 05ec 80bd 315c c0be bb94 c0bd 75f7 d93d
000003a0: 445e 273e 94c7 f13e 443c 803c b6f0 a63e
000003b0: 709e 923e f0a1 9e3e 6e2a 913e 78e3 22bd
000003c0: 6b55 a4be e238 92be 8005 e5be 35df e93e
000003d0: 44d3 843e 21cd e73d 39fe bd3e 07dd 913e
000003e0: 08d7 f53e 248e ebbe eebc 32bc 24c9 92be
000003f0: 08c3 3f3e c937 fb3e 3bb0 a03e 0b80 67be
0.25736755 -0.055430643 -0.15991245 0.072303265 -0.33431584 0.39425504 -0.3507366 0.4061161
-0.21640873 0.08357771 0.45719218 0.3025954 -0.45161638 0.05604636 0.43765604 -0.20966652
-0.11650437 -0.3622885 -0.48257583 -0.3610294 0.28434122 -0.45564416 -0.1751977 0.4416325
-0.10180164 -0.16766673 -0.06491337 0.12276044 -0.080278985 -0.2570286 -0.057052594 0.12394121
-0.20907581 -0.41525504 -0.20436166 -0.22337306 -0.037934702 -0.035332493 0.08625379 0.0750044
0.34661037 -0.07121535 -0.3622942 -0.2857699 -0.051370036 -0.23726392 -0.25178528 0.4863564
0.43116397 -0.3517377 -0.17998646 -0.40153334 0.052259192 -0.29285905 0.111905396 -0.12068329
-0.3650401 0.13395528 -0.35462952 -0.14733416 -0.30033126 0.41868612 -0.21815088 0.450642
-0.007733388 -0.032461673 0.19269407 -0.5092689 -0.5066436 -0.45663807 -0.11598984 -0.012673502
0.43827122 -0.35514086 0.16391969 -0.2693555 0.0948367 -0.48729345 0.039501 0.3365629
-0.038878288 0.2710152 0.21930456 -0.44932175 -0.2987484 -0.48946208 -0.27501896 -0.43334848
-0.40228182 -0.31302157 -0.448377 -0.042581987 -0.5018142 0.23570302 0.060161125 0.27464718
0.44411936 -0.1438647 -0.28293872 0.02311933 0.17514546 0.34592116 -0.24448454 -0.013782937
0.16694261 -0.20626712 0.44146574 -0.046201028 0.09288066 0.48922527 0.065881684 0.29209158
0.37546748 -0.2479663 0.3722519 0.38471708 -0.14902836 0.5113323 0.06736782 0.36937097
-0.061467282 0.1990558 0.23878905 -0.33026236 -0.023045676 0.36899567 0.1211105 -0.13334912
0.18932623 0.45532084 -0.2744496 -0.49760768 0.33974284 0.4679932 0.39373118 -0.25115827
-0.16686772 -0.008014039 0.4089875 0.422838 0.24616641 -0.12125718 -0.40268743 0.076183975
0.4069468 0.2771971 -0.30883095 0.35204744 -0.31891263 -0.23824546 -0.1902829 -0.33461636
0.35910806 0.40064803 -0.14370444 0.13335869 -0.32370713 0.04855462 0.12159949 -0.018724537
-0.19990714 -0.30891296 -0.1759478 0.36040697 0.107160434 0.4432686 0.3586956 -0.1326381
-0.15861595 -0.14318156 -0.44748998 -0.041552324 -0.26972255 -0.3681497 -0.05228975 0.2843939
0.22467951 -0.19117348 -0.31958067 -0.12249262 0.4920344 -0.29090503 -0.008765767 0.11181434
0.53403884 -0.26692358 0.23952073 -0.07556456 0.08195562 0.39808828 0.4484763 -0.07733687
-0.37507698 -0.3102309 0.05173377 0.29254028 -0.02704328 -0.50734055 0.47004598 -0.38748622
-0.11209965 -0.39362133 0.021896888 -0.18147473 -0.044358507 -0.36167088 0.21766885 0.34660605
-0.43008798 -0.4736684 -0.17766501 0.00808913 0.4944252 0.18994689 0.19620338 0.3265106
0.23970807 0.34221846 0.33252224 -0.08083206 0.32685345 -0.39013648 0.31983706 0.34605077
0.42623273 -0.11783448 -0.0006314035 -0.45977715 -0.06295017 -0.37570336 -0.09403368 0.10642902
0.16344553 0.4722258 0.015653737 0.32605523 0.28636503 0.30982924 0.28352684 -0.039767712
-0.3209642 -0.28559023 -0.4473076 0.45678106 0.25942433 0.11318422 0.3710802 0.28488943
0.48015618 -0.46006882 -0.010909302 -0.28669083 0.18726742 0.49065998 0.31384453 -0.22607438

net.0.bias f4 [256]
00000000: 0c52 46bc 5dde 533c b402 a1bc 787f 963c
00000010: aaea 0dbc c06c 963c 96bd 81bc c33e f83b
00000020: 5f12 b33b af92 a03b 262b 803c fdef 4cbc
00000030: e2d2 83bc 499d f7bb c563 f63b 9093 093c
00000040: fc22 91bc 480f 563b e83e 003b e034 26bc
00000050: a94a 2f3c f716 34bc 158d 3dbc e74b fa3b
00000060: 0017 e8ba 63a2 ecbb b809 91bb bf7c dc3b
00000070: d664 44bb 8d0e c4bc 8609 d6bc bc26 823c
00000080: c90e 483c f0f1 503c e929 943c cfc0 dc3b
00000090: b41a 66bc 7b26 02bc ff2a b8bc 016c 213c
000000a0: 8224 8e3b 96d3 c13a 531e bfbc cfd3 cf3c
000000b0: 99f1 3f3c 101c 963b 5ea4 833c cd33 52bb
000000c0: f90f bb3b ef74 e3bb babb bf3c ffbb 323b
000000d0: 71fe a63b f8d1 46bc eacd fdbb ca85 b0bb
000000e0: d341 973b 52c1 fb3b 1815 ae3c 0532 4d3c
000000f0: 4b3d 793c b2d7 c1bc c36e 03bc 5a92 33bc
00000100: c428 acbc 262c 363c bc8f 293c 5cf0 ac3b
00000110: 9d8d 0c3b abe9 833b 32c1 5c3c 2229 7dbb
00000120: 7b17 76bc 5cd9 07bc b8dd 1d3c de34 92bc
00000130: eeef 6d3c 5ac5 bfbb 5945 acbc 5776 b1bb
00000140: 51c5 923b 648d 8d3c 38b0 f6bb 4f08 c6bc
00000150: 2b6c 69bc cdd1 76bc ce3d 8dbc 9517 a43c
00000160: 13e0 b3bc 8b09 b5bb 3c6b b0ba d034 3cbc
00000170: 8c24 a1bc a561 f7bb 2e34 8dbc 17d2 1cbc
00000180: 86a9 ddba 7e3a bebc 0a5a 03ba 132a 7e3c
00000190: 6e33 9abc 1ef2 c539 df4e 89bc 1b75 8bbb
000001a0: e1b4 0d3c 5e8f 123c 4bca 4c3c 1571 de3c
000001b0: a21b 2bbb c5b7 28bc 179e 683a 326e 5fbc
000001c0: 6a12 b73a 31b9 923b 4efb 4b3c 77a5 393b
000001d0: 88ba f93b 6250 0ebd bd13 c5bc 240a 90bc
000001e0: a33c acbb 2d76 843c 02fa c73b e07f aebb
000001f0: 4acf 2a3b 4368 733c 1b34 843c c822 903c
00000200: 6313 843c 53d0 b6bc 8d19 803c 3059 6f3c
00000210: 54c1 043c 0446 39bc ba6b 8d3c 77ad 1b3c
00000220: 6213 6b3c d014 9f3b 4185 19bc fb0d e83b
00000230: e17c db3b 5d56 033c c3aa b0bb e57b f03b
00000240: 8882 123c c2ee 453c edf2 0cbb b628 38bc
00000250: 7b35 5f3c cef7 fbbb 4b6b 1e3c cf54 3fbc
00000260: 35a9 bcbc 33b8 1bbc 5bfb b1bb c90e 403c
00000270: 3279 56bc 448a 9a3b b708 36bb e2ee 853a
00000280: f461 9e3b 3d09 4cbc 29da 883b 56a7 943c
00000290: 1405 023c 7395 aa3b 028f 783c aa60 9cbb
000002a0: 032e d63b 0eb7 ca39 8653 16bc ac87 223a
000002b0: c1b0 6bba ac57 7c3b e119 223c 6994 5ebc
000002c0: 971e 68ba a3db 9a3c 6739 4dbc fab3 95bc
000002d0: 2d4d 91bc a7d9 423c 789f 1cbb ed31 18bc
000002e0: 772b 9b3c 6702 06bc 61fe 8f3c 0357 b1bb
000002f0: 17f9 273b 6375 d3bb 0217 66bb dd78 a13b
00000300: 09c0 90bc 4e47 4c3b baf9 3ebc 7038 afbc
00000310: df8a 1a3a 4b56 b83c 772b 9abb 25f2 963c
00000320: 4c1c 623c a595 aa3b 7234 e0bb 2395 553b
00000330: c32e 5a3c 131b e63c 0d49 0c3c ece6 86bb
00000340: 6329 df3b 046e f73c 2c02 91bc 1b6e 9ebb
00000350: 40b8 a5bc 93b4 c93c 0257 97bc 5011 1b3c
00000360: 8832 063c 3b51 513c b368 783c 737f 89bb
00000370: bfea 903c df9c a83a 882e 52bc 7723 d13b
00000380: deca 8cbb 5de1 52bc 2482 dabb 6164 a1b9
00000390: 51a5 bcbc 8680 59bc 9eab 2d3b e0fd 4a3b
000003a0: a11e c7bb c96c b0bc ced2 733c 31d8 ca3b
000003b0: cca7 c9bb f1ec aabc e801 0e3c 7f84 75bc
000003c0: 4a61 753c 40d9 15bb a339 6c3c 76d3 0d3c
000003d0: e339 6e3c cf94 b13c e630 bc3b bb51 80bc
000003e0: 1d00 01bc 1a95 9b3c cfda b2b9 c7a5 693c
000003f0: 64a1 9fbb 4e67 aabc 1390 903c 87b8 47bc
-0.012104522 0.0129314335 -0.01965461 0.018371329 -0.008661905 0.018362403 -0.015837472 0.007575841
0.0054648365 0.0049002985 0.015645575 -0.01250839 -0.016091768 -0.0075565916 0.0075192177 0.008396998
-0.017716877 0.0032662917 0.0019568745 -0.010144442 0.010698953 -0.010991803 -0.011569281 0.007638443
-0.001770705 -0.0072215064 -0.0044262074 0.006728738 -0.002996733 -0.02393272 -0.026127588 0.01588761
0.012210556 0.012752995 0.01808639 0.0067368518 -0.014044452 -0.007943745 -0.02248144 0.00985241
0.004337848 0.0014787789 -0.02332989 0.025369553 0.011715316 0.004580982 0.016069587 -0.0032074333
0.005708691 -0.00694143 0.023404945 0.00272727 0.0050962497 -0.012135021 -0.007745494 -0.0053870426
0.004616001 0.0076829577 0.021250293 0.012524133 0.015212367 -0.023662422 -0.008022013 -0.010960186
-0.021015532 0.011118924 0.01034921 0.0052776765 0.0021446713 0.004025658 0.013473796 -0.0038629253
-0.015020247 -0.008291569 0.009635381 -0.017847475 0.014522536 -0.0058523836 -0.021029161 -0.0054157185
0.0044790884 0.017279334 -0.007528331 -0.024173884 -0.014246981 -0.015064669 -0.017241385 0.020030776
-0.021957433 -0.0055248193 -0.0013459693 -0.011487201 -0.019670747 -0.007549482 -0.017236795 -0.009571574
-0.0016911484 -0.02322125 -0.000501067 0.015512961 -0.018823352 0.0003775516 -0.016761241 -0.0042559034
0.008649082 0.008945314 0.012499402 0.027153531 -0.0026109 -0.01029772 0.0008873655 -0.013637112
0.001396728 0.004477643 0.012450052 0.0028327384 0.007621113 -0.034744628 -0.024057264 -0.01758296
-0.005256252 0.016169632 0.0061028013 -0.0053253025 0.0026063495 0.014856401 0.016138127 0.01759471
0.016122526 -0.022316134 0.015637184 0.014608666 0.008102734 -0.011308197 0.017263282 0.009501806
0.014347883 0.004854776 -0.009370149 0.0070817447 0.0066982363 0.008016196 -0.00539145 0.007338988
0.008942254 0.01208085 -0.00215071 -0.011240175 0.013623591 -0.0076894527 0.009669135 -0.011677935
-0.023029903 -0.009504366 -0.0054315752 0.011722275 -0.013090419 0.0047161896 -0.002777619 0.0010218287
0.0048334543 -0.012453374 0.0041763973 0.018146198 0.007935781 0.005205804 0.0151708145 -0.0047722654
0.0065362467 0.0003866483 -0.009175187 0.0006200026 -0.0008990877 0.0038504405 0.009893865 -0.013585188
-0.0008854656 0.01890356 -0.012525893 -0.018274296 -0.017736996 0.011892713 -0.0023898762 -0.009289247
0.018941624 -0.008179284 0.017577352 -0.005411984 0.0025630647 -0.0064532026 -0.0035108929 0.004927738
-0.017669694 0.003117043 -0.011656219 -0.021389216 0.0005895327 0.022502085 -0.0047048884 0.01842601
0.013800692 0.0052058273 -0.0068421895 0.0032590113 0.013316813 0.028089082 0.008562339 -0.0041168835
0.0068103536 0.030203827 -0.017701231 -0.004834903 -0.020229459 0.024622237 -0.018474106 0.009464577
0.0081907585 0.0127757145 0.015161681 -0.0041961013 0.01769006 0.0012864134 -0.012828477 0.0063824016
-0.0042966446 -0.012871114 -0.006668346 -0.000307831 -0.023028048 -0.013275271 0.0026499997 0.0030974075
-0.0060766493 -0.021536248 0.014881803 0.006190323 -0.006154036 -0.020864936 0.008667447 -0.014985203
0.014976809 -0.0022865087 0.014418039 0.008656373 0.014540168 0.021677403 0.005743134 -0.015663972
-0.007873562 0.018991996 -0.0003411383 0.014260716 -0.004871534 -0.020801213 0.017646825 -0.012189991

net.2.weight f4 [256, 256]
00000000: 3833 163c dfeb 82bd 6959 38be 0ccb a63d
00000010: 0eea 01be 49f3 0ebe 9db3 d43d 3f13 10be
00000020: 4407 903d 4dd9 2ebd 6759 b6bd 21a5 1d3c
00000030: 788d e5bd 1d06 103d 6d69 543d 8dc8 71bd
00000040: ba3b 963d 90c1 843d aed9 01be 3c3a 64bd
00000050: 7b93 8e3d d9c7 0ebb 4a74 033b a7de da3d
00000060: 5520 a93d 40c0 d8bd c603 d43b 78c4 e1bd
00000070: 57ea 093e 1c32 e73b 299d e63d 097a 0cbe
00000080: b866 35bc 0897 fcbd 151b c3bd d7f1 57bd
00000090: d845 96bc 57ad 97bd 629b 03bd 3b4e 57bd
000000a0: 5595 d03d d0b7 f63d df1c e53d 9359 073b
000000b0: c332 303e 6ca3 94bd 58d1 fcbd b5ad 1abe
000000c0: a51c 16be d1e1 79bd abe4 a73d 416c 903d
000000d0: f240 3d3d 73db e53d d538 0dbe 2ec4 da3c
000000e0: f917 48bd 7649 913d c9c8 a93d f5c3 12be
000000f0: 43ed e63d 2c34 a4bc c348 b3bc 80e9 fb3d
00000100: ba45 cc3c 9b33 cebd 2acc 413d 7b9a 1dbd
00000110: 9b82 febd 4882 163c b439 21bd 164e c9bd
00000120: d44a b6bd 1632 3dbe 9d50 a1bd 3b5d c13d
00000130: 523d 8ebd ca89 133d 4128 e0bd 43a7 d83d
00000140: 362e 053e 92b3 453d e85e 64bc 1fbe 58bc
00000150: d5d8 1dbe b8f7 d53c 6e28 973d 443f 1a3d
00000160: 404d 02be 92c6 8e3d 313b f23d 6bef 46bd
00000170: 0ade 92bc 2179 d9bc c34c 1bbe a52a 13be
00000180: faa0 e0bd 1b25 69bd 9da3 23bd c470 233d
00000190: 17d5 b33d 5a47 55bd 818f 783d 064b dd3b
000001a0: e2dc d8bd 68c3 05bb 095e a6bb 1e9c 8f3d
000001b0: 8b0e 22bd f737 843c fc0e b53d df0e 1bbe
000001c0: 0c70 63bd b382 123e f966 b33d 6d57 163e
000001d0: ee66 6e3d 2ff1 08be 1b47 0ebd 14f8 10be
000001e0: e45d 09be fa57 5abd 6e1e 083e 9f67 f3bd
000001f0: 18f5 a3bd 0477 7f3d c5b4 bb3a 4527 07be
00000200: a1c1 e53d c0c2 36be 3934 403d d081 ef3d
00000210: be4c 313d 4227 3bbc 8706 183e a8f7 08bd
00000220: 76fe 533d 9ad0 abbd b351 8c3d 278d 37bd
00000230: ab12 bbbd a23e f3bd 972d d4bd 94ff 193e
00000240: 0ab7 f1bb 405b 39be 0f8f 35be 822e ff3d
00000250: caf2 02be 10a7 93bd cbda 0bbe e150 a2bd
00000260: db4e 0d3e f8a9 243e c21d 04be 6e62 28be
00000270: 35d5 03be fe34 e535 5112 053e 4938 19be
00000280: d4de babd aa59 263e b87c febd 905c 83bc
00000290: 0e14 d53d 3eb3 2c3e d1c8 983c 5a62 9fbd
000002a0: bc5e 203c bce9 cb3d 536d ffbd dd40 813d
000002b0: 2322 2abd e235 10be 1856 ea3d 6033 22bd
000002c0: 60b8 f33d a830 f1bd ee6f aa3d dfe0 023e
000002d0: edff ffbd 596d 7e3d e2ea 0a3e 0b33 6dbd
000002e0: 136b 72bc 3eef e0bc 705d bcbc ca9a 07bd
000002f0: 6fa8 db3d c9dc 723d c078 eabd 0efb d23b
00000300: af3e 0abe 406e 3dbd 7eab c4bd f018 1cbe
00000310: fd45 19bd 8781 dbbd eefc 9d3c c20f 713b
00000320: 01de 50be 42d8 b2bd f24d 2d3d a078 9cbd
00000330: 3942 083e 0d47 a73d 64a0 00be 5941 1d3c
00000340: 793c bd3c 816a a4bd 2a9a adbd 9637 0d3e
00000350: b309 013e 2a6c bc3d 87d4 1bbe 50b5 af3d
00000360: 9b97 4f3d 5487 cdbd d238 ad3d ffe4 aa3d
00000370: a075 d6bc cf89 dc3d b78f 2d3e abfd aa3d
00000380: 5a1d a5bb a26e 60bd 364c 54bc 36f3 debd
00000390: 0175 b4bc bb62 f4bd bd36 28bd 1814 b43d
000003a0: 55be ff3d a0ec d3bd 1e83 923d 0052 333d
000003b0: c54d 11be 0570 d0bd d579 adba b609 d2bd
000003c0: 0bc3 8fbd b2fa 1c3d 8cbb 153d ea86 0bbe
000003d0: 6a5c b0bd edde d2bd fc93 33bd 1ac7 99bd
000003e0: 3312 8bbd 2396 1e3e f67a dabd 2984 8c3d
000003f0: e8d1 bcbd 723b 6a3d 2ccc 953c cb6b 923a
0.009167485 -0.06392645 -0.18002857 0.08144197 -0.12686941 -0.13959993 0.10385821 -0.14069842
0.07032636 -0.042687703 -0.08903771 0.009621889 -0.11208624 0.03516208 0.051858354 -0.05902915
0.07335611 0.064822316 -0.12680694 -0.0557196 0.069617234 -0.00217866 0.0020058327 0.10686999
0.0825812 -0.10583544 0.0064701764 -0.110238016 0.134683 0.007055534 0.11260445 -0.13718428
-0.011071853 -0.123334944 -0.0952665 -0.05272087 -0.018343851 -0.07406109 -0.032130606 -0.05256484
0.10184733 0.12046778 0.11187147 0.0020652756 0.17206864 -0.07257733 -0.12344617 -0.15105326
-0.14659365 -0.06100637 0.08197912 0.07051898 0.046204515 0.11223497 -0.13791211 0.026704874
-0.048850987 0.0709409 0.0829025 -0.14332564 0.11275723 -0.020044409 -0.021885281 0.12300396
0.024935592 -0.10068437 0.047313847 -0.038477402 -0.12427255 0.009186335 -0.03936167 -0.09829347
-0.08900991 -0.18476138 -0.07876704 0.094416104 -0.0694529 0.036020078 -0.10945178 0.10578778
0.1300591 0.048266955 -0.013938643 -0.013228922 -0.15414746 0.026119098 0.07380758 0.03765799
-0.12724781 0.06971468 0.11827696 -0.04856817 -0.017928142 -0.026547017 -0.15166001 -0.14371736
-0.10968204 -0.056920152 -0.039950956 0.039902464 0.08780878 -0.05207 0.06068373 0.0067533283
-0.10589005 -0.002041066 -0.005077128 0.07012199 -0.03956465 0.016139967 0.08840749 -0.15142392
-0.055526778 0.1430767 0.08759875 0.14681788 0.05820363 -0.13373254 -0.03473578 -0.14157134
-0.13414723 -0.053306557 0.13292858 -0.118849985 -0.08005732 0.06236936 0.0014320841 -0.13198574
0.112185724 -0.17847729 0.046924803 0.11694682 0.043286078 -0.011422934 0.1484624 -0.03343931
0.051756345 -0.08389397 0.068515204 -0.044812348 -0.0913442 -0.11877181 -0.10360258 0.15038902
-0.0073765563 -0.18101215 -0.17730354 0.124600425 -0.12787929 -0.07209599 -0.13657682 -0.07925583
0.13799612 0.16080463 -0.12901977 -0.16443798 -0.12874301 1.7077252e-06 0.12995268 -0.14962877
-0.09124532 0.16245142 -0.12426132 -0.016035348 0.10404216 0.1686525 0.018650444 -0.07782431
0.009788211 0.09956691 -0.12472024 0.063112 -0.04153646 -0.14083055 0.11442202 -0.039599776
0.11900401 -0.117768586 0.0832213 0.12781094 -0.12499986 0.062116 0.13566163 -0.057910006
-0.014796036 -0.02745783 -0.022993773 -0.033106603 0.107254855 0.05929259 -0.114488125 0.0064386195
-0.13500474 -0.04624772 -0.09603022 -0.15243888 -0.03742026 -0.10718065 0.019285645 0.0036783074
-0.20397188 -0.08732654 0.042310663 -0.07640195 0.13306512 0.08167849 -0.12561184 0.0095981
0.023100125 -0.080281265 -0.0847667 0.13790736 0.12601356 0.09200318 -0.15217791 0.085795045
0.05068169 -0.100355774 0.08458103 0.08344459 -0.026179135 0.107684724 0.16949354 0.083491646
-0.0050388994 -0.054793008 -0.012957623 -0.108862326 -0.022028448 -0.11932894 -0.041067827 0.08792895
0.12487475 -0.10347867 0.07153915 0.043779373 -0.14189823 -0.10177616 -0.0013235161 -0.102557585
-0.07019623 0.03832502 0.03655581 -0.13625684 -0.086113766 -0.10296426 -0.0438423 -0.07508679
-0.067905806 0.1548696 -0.10667984 0.06861145 -0.09219724 0.057185598 0.018285833 0.0011171041

net.2.bias f4 [256]
00000000: a2ad d1bb 94d5 52bb 03cc aa3c a43f 203c
00000010: dcfe 403c 4699 4fbc 5f59 98bc 1dda fdbb
00000020: 876c 4ebb cebf a5ba fdc8 e1bc 5a36 cd3c
00000030: 8b88 ce3c d11c b6bb eabf 94bc 0a92 b93b
00000040: ac87 f63a 153d 233c f938 72ba 369d 15bb
00000050: c9e0 6fbc 7f47 c0bb 82c7 b23c ea29 20bc
00000060: 2149 883b b120 92bc d842 45bd 6b5d 26bb
00000070: f817 c63b 28b0 adbb 886b fc3c 3428 07bc
00000080: bbe1 10bb 86e0 66bc a8c9 96bb 970c 92b9
00000090: d834 33bc 2f8f b13c bab5 34bc 605a f5bb
000000a0: ee15 903b c877 8aba 3565 823a 4f27 333a
000000b0: 8d4d 27bc 7c25 c3bc eca3 903c 36cd 7abc
000000c0: adb7 fdbc 18d2 2fbb 530f 083d 35e0 f3bb
000000d0: 69de b03c bb77 043c 5ca2 20bc 1b07 3a3c
000000e0: c5a0 1ebb ef3a 91bb 93b6 41bc b38c 873c
000000f0: 2a20 913b 6576 36bc b6d8 ca3c b60d 62bb
00000100: 3f3f 053c ef8e a5bb a18f 7abc 8b3b b03b
00000110: ae36 68bc 5479 e5bb 1223 09bb fd3e 08bc
00000120: 48e4 353c b46f 61bc 5dbf 06bd c3c9 063c
00000130: 6451 643c 746f 683c 8fa0 5fbc c524 07bc
00000140: ced3 19bc b337 8d3c c37f 03bd 4b2a 33bd
00000150: a54b 14bd 5879 bfbb 84fc 243d ac67 373d
00000160: 8d21 243c 7c99 713b 5c3b 873b 3c16 30bc
00000170: 95db 59bc ba47 e43b 8d75 143d 11e1 0ebb
00000180: 1745 9b3c 2206 2cbc 0a21 cf3c db51 7a3c
00000190: 3548 c93a 6ce9 3bbb 6b70 66bc 1b45 36ba
000001a0: b830 8dbc 82b1 dcbb 1e09 8d3c 7461 93bc
000001b0: addf 753c 27fe 263d fd87 50bc 39f2 093d
000001c0: b3c0 51bb 6be4 133c bc6f 7e3c 0826 e5ba
000001d0: 4549 e93c 0a22 03bb c096 2e3c e5e7 233c
000001e0: 4c2f 76bb 8ab7 b33b cb51 243c 437b 893b
000001f0: 7dbf f7bb f5de 81bb 1633 8e3b ccd3 e03a
00000200: 6485 e33b 6fc6 963b 4144 d7bb 9186 823c
00000210: 6688 343d 57ff 8dbc 9717 c8bb 6f55 5cbc
00000220: f57a 72bc 0027 ad3c ead9 9abb bd16 9abd
00000230: eb4f 263c 32a6 d73c 0279 013d 6694 63bc
00000240: d56d 603b 487b b53c 9945 b0bb b99b 253c
00000250: fea7 cc3c 3bf9 53bc ee0c cb3a e3d0 883c
00000260: c8b6 2b3c 73cc 413b c0f6 a13b f363 c2bb
00000270: b438 2ebc 260b 8f3c 02f1 eebc 0b8c ebbb
00000280: 9fcc 20bd 5fc0 b3bb f32d 2e3c 9c35 1b3c
00000290: 588a febb ac37 0d3c c150 133c 7451 a93b
000002a0: 7356 ba3b 9f90 36bb 013e 9b3c a65b 7e3b
000002b0: b7e6 213c a7c6 5d3c 4e77 fe3b 2ac5 12bc
000002c0: 3064 9bba 69a0 053d 54f3 8aba f456 233c
000002d0: 08d5 0abb 0f3c 143c 0b94 e8bb d424 bbbb
000002e0: 07a3 ddbb 5151 4dbd 728c dfbc 1aea 3e3b
000002f0: 3c2b 753c f50e dfb9 5328 6a3c 78ae 9bbc
00000300: ee8e 88b9 7b4c e7bb a23e d3ba d1e9 ac3b
00000310: 9067 eb3b 160e 4fbc 3e20 8cbc f8ec 43bb
00000320: 0bc9 a03b 2efe 7fbc a79b 8ebb 15be c3bc
00000330: 5861 babc e1d6 14bb d8a2 113c 823e 88bc
00000340: f088 b9bb c170 6dbc 096c efbc 9b96 233c
00000350: 9141 90bb 6eb9 c7ba 5ac9 c3bb f324 113a
00000360: d7a8 7d3c 5d3c 73ba f1b4 b33c 2516 13bc
00000370: fbcd ffbb 3dc4 68bc 70ad 2e3d 36f2 073c
00000380: b594 10bd fc89 b83c 19bf aa3b 77a7 1b3c
00000390: 30c3 9bbc 6c89 08b9 b5bc 66bc 7ec6 143c
000003a0: 50b4 06b7 247e 9036 f019 2bbc 2463 b23c
000003b0: f8a9 fa3a 210a c3bb 9312 213c 93ec ca3a
000003c0: 4074 b93c 0dfe 7e3b c278 cd3c cb7c 8b3b
000003d0: 5e10 053b 3ec1 77ba 9d03 c43b 8e65 5e3c
000003e0: 5d12 74bc 53c8 c1bb b1e7 643b 3e44 953b
000003f0: 22b6 353c 4f14 ae3c c604 1b3d f374 0cbc
-0.0063988725 -0.003217076 0.020849233 0.009780798 0.011779513 -0.012670821 -0.018597303 -0.0077469484
-0.0031497793 -0.0012645663 -0.027561659 0.02505033 0.025211593 -0.0055576344 -0.018157918 0.005663161
0.0018808744 0.009963294 -0.0009240057 -0.00228293 -0.014640995 -0.005867898 0.021823648 -0.009775618
0.0041591083 -0.017837854 -0.04815945 -0.0025385271 0.0060453378 -0.0053005405 0.030812994 -0.008249331
-0.0022107202 -0.0140916165 -0.004601676 -0.0002785667 -0.010937892 0.02167472 -0.011029655 -0.00748758
0.0043971455 -0.0010564262 0.0009948375 0.00068341655 -0.010211361 -0.023821585 0.017656289 -0.015307715
-0.030971373 -0.0026828106 0.03321774 -0.007442499 0.021590428 0.008085187 -0.0098043345 0.011354233
-0.0024204713 -0.0044320743 -0.011823314 0.016546583 0.004428883 -0.011136626 0.024761539 -0.0034493036
0.008132755 -0.0050524394 -0.015293033 0.005378192 -0.014173193 -0.007002989 -0.0020925445 -0.008315799
0.01110179 -0.013759542 -0.032897342 0.008226815 0.013935421 0.014186729 -0.01364912 -0.008248513
-0.009388877 0.017238474 -0.032104265 -0.043741506 -0.036204953 -0.0058433227 0.04027988 0.044776604
0.010017765 0.0036865165 0.0041269492 -0.010747489 -0.013296981 0.0069665583 0.036244918 -0.002180163
0.018953843 -0.010499509 0.025284309 0.015278305 0.0015356602 -0.0028673066 -0.0140648885 -0.00069530465
-0.017235145 -0.006735028 0.017216261 -0.017990805 0.015006942 0.040769722 -0.012727735 0.033678267
-0.0032005727 0.009026627 0.015529569 -0.0017482648 0.02847732 -0.0020009303 0.010656059 0.010004018
-0.0037564812 0.005484526 0.010029267 0.004195602 -0.007560669 -0.003963346 0.004339586 0.0017152964
0.0069433916 0.004601292 -0.006569416 0.015933307 0.044075392 -0.01733367 -0.0061063278 -0.013448103
-0.014799823 0.02113676 -0.0047256844 -0.07523868 0.01015089 0.026324365 0.031609543 -0.013890361
0.0034245152 0.022153512 -0.0053793904 0.010107928 0.024982449 -0.012937839 0.0015491524 0.016701167
0.01048059 0.0029571324 0.004942745 -0.005932325 -0.010633636 0.01746137 -0.029167656 -0.0071883253
-0.039257642 -0.005485579 0.010631072 0.009473231 -0.0077679567 0.00861923 0.008991421 0.0051671807
0.005686575 -0.0027857197 0.018950464 0.003881195 0.009881667 0.013536132 0.007765687 -0.00895814
-0.001185542 0.032623682 -0.0010601082 0.009969462 -0.0021184105 0.009047522 -0.007097726 -0.0057111774
-0.006763819 -0.050126377 -0.02728865 0.0029131235 0.014963921 -0.00042545018 0.014291841 -0.019004092
-0.00026046432 -0.0070586777 -0.0016116688 0.0052768965 0.0071839765 -0.012637636 -0.017105218 -0.0029895883
0.0049067787 -0.015624566 -0.0043520513 -0.02389435 -0.022751495 -0.0022711086 0.008888923 -0.016631369
-0.005662076 -0.014492215 -0.02922632 0.009984638 -0.0044023474 -0.0015237757 -0.0059749307 0.0005536817
0.015482149 -0.0009278709 0.021936866 -0.008977448 -0.007806537 -0.014206943 0.04264587 0.008297494
-0.035298068 0.022526734 0.005210769 0.009500376 -0.019013971 -0.00013021164 -0.014083077 0.009080527
-8.029005e-06 4.306219e-06 -0.010443196 0.02177579 0.0019124141 -0.005952135 0.009831089 0.0015481882
0.02263844 0.003890875 0.025081996 0.00425682 0.0020303945 -0.00094510976 0.005981876 0.013574017
-0.014896956 -0.005913773 0.0034928138 0.0045552542 0.011090787 0.021249918 0.03784635 -0.008572805

net.4.weight f4 [256, 256]
00000000: b6c5 14bd 40de c7bd e37a 47be 101e eb3d
00000010: 523c 09be 111a d43d 0fbf a1bd 2606 143d
00000020: c0e1 e8bd d954 dabd d760 983d 8356 1d3e
00000030: 0557 183e 1e64 3e3d 21be b2bc 9f48 88bd
00000040: 573a 98bc 28cb 083d d2a1 0a3e 2acb d73b
00000050: e3a5 bc3d 3ff4 e73c ed6e ef38 e152 03bc
00000060: b86e 083e 9719 043e 721b ab3d 8712 3dbd
00000070: 671d e7bd 37a3 4bbd 9780 1f3e 1a5f 8fbd
00000080: 0501 18be 2e69 153e 38c4 9dbd 0cc7 88bb
00000090: a4c2 03bd fae1 2bbd 3b5c 3d3e e8b9 2a3e
000000a0: 3ca5 efbd 4ab8 77bd e50c 93bd e155 0f3e
000000b0: cee8 16bd b023 653c e016 25be 6162 07be
000000c0: fc8d b83d 41a0 e3bd 4ebf b2bd 0c3a 13be
000000d0: 86fc 9bbc 308d 023e caab 053e 9d49 1ebd
000000e0: 7640 d83d 132e aabd 4789 c0bb 268a 87bd
000000f0: cc5b c8bd b1d4 c2bd 0342 04be cb70 c63d
00000100: 758e adbb c4d8 913c 26ef 48bd 6841 a03c
00000110: 9f9a ecbc e4df 833d 1857 08bd 92de 32be
00000120: 14ae 843d 7bc1 563d 7bdf e53c 6f9e 25bd
00000130: 8a2e a339 a9a9 09be 8c12 13be be9c af3c
00000140: 6aff 583d eedf afbd 0f2b b9bd e143 4d3d
00000150: e9ab 7fbd 5caf 053e 6ae2 153d a2cc 39be
00000160: c625 53bb ec29 50be 78f4 53bd 2d87 27be
00000170: 350e 05be 903a 8dbd 942e a93c 9d80 923d
00000180: 4a68 7ebc 9bd4 67bd e5df fdbd 5641 d9bc
00000190: bf81 1b3e 41e2 5dbd fb21 a73c 27e3 b73d
000001a0: 9019 1ebd d4c6 fe3d 1054 53bd 12d3 5cbd
000001b0: 2191 f13c 2e2b 45be 024d 28be c951 2dbe
000001c0: 3b4c e0bc e2b6 0e3e f247 87bd 3e72 023d
000001d0: 2871 d6bc 37e7 e43d d317 85bc bea7 20bd
000001e0: 6750 e23d c7ca 8d3d 47db 95bd a797 523d
000001f0: 0671 503d a9d3 f43c f1bb 003d a118 28bd
00000200: 8baf 1c3e 7a8c 14be c8c1 44bc 97c1 02be
00000210: b260 183e 2c7d 163e 2bc2 103e 8c21 373d
00000220: 3d56 863d 28e6 19bc 0229 4a3d b329 a8bd
00000230: 5ef7 4ab9 17ff debc 87a4 bdbc 510c df3d
00000240: 3551 083e d060 10bd c588 c83d 286c 20be
00000250: 8c81 d6bd c24a 83bd 1410 bc3c 6135 2ebd
00000260: 171b 943d 1f71 7fbd 54e7 1fbe ba13 9f3d
00000270: e22c 673e b24b 70bd 9dfd 5bbd 6a1d 893d
00000280: 46c3 b13d fcf4 e23d c697 05be 96bf 13be
00000290: 35d0 73bd 4ed7 3c3d 72db 5c3d bc2a adbd
000002a0: a135 d1bc 33d2 593d 5dbd 02be c846 10be
000002b0: 3086 9fbd 27dc 97bd 0e54 993d bdf3 59bd
000002c0: 47ff 64bc 2504 efbd 1de8 90bd 5f12 043e
000002d0: 242b 2cbe 4d1b 4e3d b563 3ebd f5a1 0ebe
000002e0: 0bae c0bd 87b7 843d dfde 10be 3424 be3d
000002f0: d0ba e5bd 21e0 0f3e c7f6 9fbd b9b6 373d
00000300: 4c42 213e ccee 143e cb0e c03d 2ad9 ff3d
00000310: 6bcc fcbd e853 9bbd fdc2 a13d f7a0 b43d
00000320: 84da 2fbe c92d 40bc 9020 5a3d dc6e a2bd
00000330: 4115 e2bd 2847 913d d357 d1bd 7a2f 2c3e
00000340: cde8 0c3d 3afc 42bd 3da8 a23d cbfc 2abe
00000350: b870 de3d e7e3 90bc 3c16 18be 0f11 ee3d
00000360: 5163 fabd bf0c 8e3d 24f0 0ebe 618f 293e
00000370: feaf b43d 4de9 bbbd 5095 25be 52d8 63bd
00000380: 3f99 c3bd f421 4fbd 6012 393d 1cad d43c
00000390: eeb5 9bbc 6cee 1bbe 210a 3dbe 5b4c 823d
000003a0: 0d76 26bd 4651 443d 9985 00be 5429 8d3c
000003b0: 418c 5b3d abd9 b23d f77d f0bd 63d4 ae3d
000003c0: d812 64bd 0f7d 1a3e d306 213d a50e 04be
000003d0: 227e bcbd 6060 4cbd 3422 dbbb a714 e1bb
000003e0: c58a e63d c9b7 90bd a21a 47bb 44f7 2e3d
000003f0: ba17 733d b261 183e a491 743c 7611 8c3c
-0.036321364 -0.09759188 -0.19480471 0.11480343 -0.13401917 0.10356534 -0.0789777 0.036138676
-0.113711834 -0.10660715 0.07440346 0.15365033 0.14876945 0.046482198 -0.021819176 -0.066544764
-0.018582506 0.03339687 0.13538292 0.0065854983 0.09211328 0.028314708 0.000114170696 -0.008015365
0.13323486 0.12900387 0.08354844 -0.046160247 -0.11284905 -0.0497162 0.15576397 -0.07000561
-0.14844139 0.14590904 -0.077034414 -0.004174119 -0.032168046 -0.041963555 0.18492214 0.1667248
-0.11701438 -0.060478486 -0.07180194 0.13997604 -0.036843114 0.013985559 -0.16122007 -0.13221122
0.09011456 -0.111145504 -0.08727895 -0.14377612 -0.019041311 0.12749171 0.13053814 -0.03864442
0.1055917 -0.08309569 -0.0058757397 -0.066181466 -0.09783134 -0.09513224 -0.12915806 0.09689482
-0.005296523 0.017803557 -0.049056195 0.019562438 -0.028882323 0.06439188 -0.033286184 -0.17467716
0.06478515 0.05243061 0.028060665 -0.040434297 0.00031124457 -0.13443626 -0.14362544 0.021437045
0.052977957 -0.08587633 -0.09041416 0.050113562 -0.062419806 0.13055176 0.03659288 -0.18144467
-0.003221856 -0.20328492 -0.051746815 -0.16360159 -0.12993701 -0.068959355 0.020652093 0.07153437
-0.015527794 -0.05659924 -0.1239622 -0.026520412 0.15186213 -0.05417085 0.020401945 0.08978873
-0.038598597 0.12440267 -0.05159384 -0.05391223 0.029488148 -0.19254753 -0.16435626 -0.1692573
-0.0273801 0.13936952 -0.06605519 0.03184723 -0.026177004 0.11176913 -0.016246712 -0.03922247
0.11050492 0.06923442 -0.073172145 0.05141416 0.050889038 0.029886084 0.031429235 -0.041039113
0.1530134 -0.14506713 -0.012009092 -0.12769161 0.14880636 0.14696187 0.14136569 0.044709727
0.065594174 -0.009393252 0.049355514 -0.082110785 -0.00019356373 -0.027221246 -0.023149742 0.10891021
0.13312228 -0.035248578 0.09791712 -0.15666258 -0.10473928 -0.06410743 0.022956885 -0.042531375
0.072317295 -0.06236374 -0.15615588 0.077674344 0.22575715 -0.05866594 -0.05370866 0.066950634
0.086798236 0.11081883 -0.13046178 -0.14428553 -0.059524734 0.046103768 0.053920217 -0.084554166
-0.025538268 0.053178977 -0.12767549 -0.14089501 -0.07789266 -0.074150376 0.07486735 -0.053210963
-0.0139768785 -0.116707124 -0.07075522 0.12897633 -0.16813332 0.050319005 -0.046481807 -0.13928969
-0.09408196 0.064803176 -0.14147519 0.09284249 -0.11217272 0.14050342 -0.07810741 0.044851992
0.15747947 0.14544219 0.093778215 0.12492593 -0.12343677 -0.07584363 0.07898519 0.08819764
-0.17173201 -0.011729666 0.05325371 -0.07931301 -0.1103921 0.0709365 -0.10221829 0.16814986
0.034401704 -0.047603823 0.07942245 -0.16697995 0.10861343 -0.017686797 -0.14852232 0.116243474
-0.12225974 0.06936025 -0.13958794 0.16558601 0.0882263 -0.09175358 -0.1617024 -0.05562622
-0.09550714 -0.05056949 0.04518354 0.025961451 -0.01900765 -0.1522767 -0.18460895 0.0636222
-0.040639926 0.04792907 -0.12550963 0.01723162 0.053600553 0.08732923 -0.11742776 0.08536603
-0.055682033 0.15086769 0.03931315 -0.12896211 -0.092037454 -0.049896598 -0.006687427 -0.006868917
0.11256937 -0.07066304 -0.0030380865 0.04271628 0.0593488 0.14881018 0.014927302 0.01709817

net.4.bias f4 [256]
00000000: 9f09 6ebc 9533 fc3b 2622 2ebc 0dca d03b
00000010: 86e9 8c3c b690 463c fa5b c8bc 5d09 2f3c
00000020: 491f 3fbc 6b98 ad3a 435e abbb ebdf 40bc
00000030: 8d54 06bc 6efb 9e3b 7507 073a fa70 07bc
00000040: d530 e83c 0640 80bc 399d 90bb 67ad 023c
00000050: 2297 b6ba eb78 3abb aaae 3f3b 6263 173c
00000060: 569f 8ebc f147 9d3b 9db4 1c3d 7889 243c
00000070: a14b 743c 7e27 13bc 0997 9ebb c4b1 393c
00000080: 8a09 4a3c ccf6 39bc 5e85 723b 0765 963d
00000090: afdf 3a3c bff1 953c ef82 e73c 4a20 aebb
000000a0: 18d3 3f3c a231 1abb 6aad ffbb 411e 3fbc
000000b0: 0b2b 4d3b c781 c8bc 87e0 5cbb 484c a3bb
000000c0: eb18 5c3c 04b0 563c e530 b33c 907c 493b
000000d0: 0063 5a3c 76f3 b5bb dece fcbc 1c1d 94ba
000000e0: e2d2 503c 7f33 64bb 7304 403a f951 68bc
000000f0: d501 1e3b b9ed 94bc fcee c7bb 3d25 6abc
00000100: 69dd 19bc 382f 1c3c dc0b ab3b 6919 a53b
00000110: 1ae1 5f3b d475 77bc d87d 013c ed71 31bc
00000120: f260 70bc 0ade b2ba 48d1 bfbb e047 493b
00000130: 6e2d 0dbb 9455 f6ba 6709 f03b 555d 5a3c
00000140: 9277 0e3c bee8 40bc efee a4bb 2aa7 583b
00000150: e25b 83bc b549 a03b ca9e c0bb 5540 efbc
00000160: 27b3 963c fc1c c2bb 0588 a73c 39c5 4cbc
00000170: bd78 e43b 5745 55ba bec8 d0bb 9fac 69bb
00000180: be27 3b3d 2153 873c 1556 0c3a baa1 853c
00000190: 731c 9abb 2127 c9bb 55b1 763c 8152 133c
000001a0: d7ec ef3a 0812 85bc 72dc 5d3c 4721 483c
000001b0: 0043 2e3c 50d9 8dba 209a fc3b 98f6 0b3b
000001c0: a992 87bb e747 213d 77a6 7abb 08c8 5b3b
000001d0: 57dd ddbb 0ab7 20bb f667 4cbb f246 383b
000001e0: 1f3b 79bc 2eb1 a83b fa4c 96ba 8836 423c
000001f0: e0b2 7ebc aa6d 7a3b 7e0e 983c 54e2 d03b
00000200: af8b 8abc 2f7f 09bb cd9c a43b 0134 173d
00000210: 7304 953b a833 2b3c 6b46 8c3c b138 133c
00000220: 8839 85bc 3c95 34bc 32fb c4bc 4410 d139
00000230: 7b74 1a3c 3dcc 093c 26a2 8dbc d096 1ebc
00000240: 3666 fb3c 507f ce3c 777e dcbc 23a4 053c
00000250: 0080 31bd 5102 f33b e17c 65bb 2fbb 8cbc
00000260: 9909 48bc 8cfe 5a3b 11e5 35bb f69d 66bb
00000270: ba07 8239 99ce feb9 65ca 7e3b 115b a0bc
00000280: 23c0 96bb 204a 173d 001b 963c 7707 bfba
00000290: 99b7 393c 3e84 403b 694d 983a 713f 923b
000002a0: 7548 80bc 2f7a 8fbb 4585 caba 55fe 69bb
000002b0: 89b1 123d 321b a13b e4eb 4b3b e1b1 3e3b
000002c0: 8216 2ebc 4d81 8939 2dc7 273d d241 d4b9
000002d0: 6fc0 063c f156 b4bb 4b4f 8abc ec42 55bc
000002e0: b2f2 0c3c 2508 49ba d79c a03b b66a 803a
000002f0: 5058 84bb efe7 1bbc 1b17 b9bb 9f0f 6fbc
00000300: 430e 9d3c 5077 1a3c 173a c6bc c433 a9bb
00000310: 7063 39bc d2f4 c83c 4b3e 2c3c 97d6 f439
00000320: f30c 233c 6905 44bc 4eac ce3b 8071 5e3b
00000330: e3a7 8dbc e247 82bc 5ae6 1fbc 9d31 96bb
00000340: 85ce 003a d1f1 69b9 50ec b73c 6cf3 99bb
00000350: d5b2 9d39 66ae babb 149b 023c 55e5 6dbc
00000360: 9c66 c6bc 5a33 eebb 7547 55bb 8f66 38bd
00000370: 4799 0fbc 7bf0 68ba 7fd8 7e3c 8db3 47ba
00000380: b8d4 bb39 7431 103c 6c74 8cbc dda4 8c3c
00000390: f3c6 79bc 174e 353b 0a92 11bc 9fb2 83bc
000003a0: 760d c53c ea66 e3bc 6c54 ff3b 633a d1bc
000003b0: f109 8a3d 268c 99bc 47f8 d7bb 492b 39bc
000003c0: cb07 d43a 2a27 f5bb 481e 363c 8cf3 d13b
000003d0: 95af c7bc 90df c3bb cf84 0c3c 2092 7b3b
000003e0: 73ca af3b 0606 2abc be79 163c 747c 083c
000003f0: cb0f 26bc 4f78 ca3b ac54 003b f22c d23a
-0.014528661 0.0076965787 -0.010628259 0.0063717426 0.017201196 0.012119463 -0.02445792 0.010683385
-0.011665174 0.0013244277 -0.0052297427 -0.011772136 -0.008198869 0.00485175 0.00051509525 -0.008266682
0.028343597 -0.015655529 -0.0044132737 0.007975913 -0.0013930539 -0.002845342 0.0029248395 0.009240003
-0.017409962 0.004799836 0.038258184 0.010042541 0.014910609 -0.008981584 -0.004839782 0.0113338865
0.012331376 -0.011350345 0.0037005763 0.07343488 0.011405869 0.01830375 0.028260676 -0.0053139077
0.0117080435 -0.0023528119 -0.007802655 -0.011664928 0.0031306173 -0.024475945 -0.0033703165 -0.0049834587
0.013433675 0.013103489 0.0218739 0.003074441 0.0133292675 -0.0055527044 -0.03086036 -0.0011300179
0.012745591 -0.0034820733 0.0007324882 -0.0141797 0.0024109979 -0.018179761 -0.006101487 -0.014291105
-0.009391167 0.009532742 0.0052199196 0.0050384295 0.003416127 -0.015103776 0.007903539 -0.010830385
-0.014671551 -0.0013646495 -0.0058538057 0.0030713007 -0.002154197 -0.0018793815 0.0073253396 0.013327916
0.0086955 -0.01177424 -0.005033366 0.0033058622 -0.016035024 0.004891599 -0.005878304 -0.02920548
0.018395973 -0.0059238654 0.020450601 -0.012498193 0.006972401 -0.00081356376 -0.0063715866 -0.0035655869
0.045692198 0.016519131 0.00053534034 0.016312469 -0.0047030984 -0.0061386977 0.015056928 0.008991838
0.0018304837 -0.01624395 0.013541328 0.012214965 0.010636091 -0.001082221 0.007708803 0.0021356698
-0.0041373563 0.039375212 -0.0038246193 0.0033535976 -0.0067707705 -0.0024523162 -0.0031189895 0.0028118459
-0.0152118495 0.0051480746 -0.0011467033 0.011853822 -0.015545577 0.0038212338 0.018561598 0.0063746367
-0.01691231 -0.0020980348 0.005023575 0.03691483 0.0045476495 0.0104493275 0.017123422 0.008985684
-0.016262785 -0.011021908 -0.02404556 0.00039875705 0.009427185 0.008410511 -0.017289232 -0.009679511
0.030688386 0.025207192 -0.026915772 0.008156809 -0.04333496 0.0074160476 -0.003501706 -0.0171791
-0.0122093195 0.0033415882 -0.0027754942 -0.0035189367 0.0002480129 -0.00048600583 0.003887796 -0.019574674
-0.004600541 0.036935925 0.018323421 -0.0014574368 0.011335277 0.0029375697 0.001161975 0.004463129
-0.01565955 -0.004378579 -0.0015451094 -0.0035704572 0.035813842 0.004916572 0.0031115944 0.0029097723
-0.0106254835 0.00026227013 0.040961433 -0.0004048483 0.008224591 -0.0055035283 -0.016883513 -0.013016444
0.008602785 -0.0007668755 0.0049015093 0.0009797427 -0.004038848 -0.0095157465 -0.0056485063 -0.014591127
0.01917184 0.00942786 -0.024197621 -0.0051636416 -0.011315212 0.024530802 0.010512899 0.00046699189
0.009951818 -0.0119641805 0.0063071614 0.0033942163 -0.017291969 -0.015903417 -0.00975951 -0.004583551
0.00049135863 -0.00022310695 0.02245155 -0.0046982076 0.00030078614 -0.0056970594 0.007971544 -0.014520009
-0.02421885 -0.007269305 -0.0032543812 -0.045019682 -0.0087645715 -0.0008885932 0.015554546 -0.0007618003
0.00035825907 0.008800853 -0.017145358 0.017168457 -0.015245187 0.0027664953 -0.008884916 -0.016076384
0.02405427 -0.027759034 0.0077920463 -0.025540536 0.067401774 -0.018743586 -0.0065908763 -0.011301824
0.0016176639 -0.0074814754 0.011115618 0.006407207 -0.024375716 -0.0059775785 0.008576586 0.0038386658
0.00536471 -0.010377413 0.009184299 0.008330453 -0.010135601 0.0061788927 0.0019581718 0.0016035123

net.6.weight f4 [256, 256]
00000000: f9c0 29bc 2474 093e 260d e8bd 4045 9c3d
00000010: 4ea2 86bd 3a7b a23d 0ef3 cebd 91e2 dbbd
00000020: 73c9 9a3d b4ab 813d 5827 093c e872 ea3d
00000030: 7d2b 1ebd 50d2 c33d 5c67 1b3e be6d 57bd
00000040: e9a6 253e 4804 043e 001b 963c 0bd8 7ebc
00000050: 672c 013e 976e 84bd a601 093e bb42 b23d
00000060: 73fc dbbc f619 b4bd cbcb 11be 715e fd3d
00000070: 0f24 d6bd 90c4 c43b 3160 7bbd 60cc 34bd
00000080: 69b2 e93c 9727 e6bd b73f b43d f4cd 0b3d
00000090: 78b0 c1bd c58e c2bd ad7b 0f3e b2da 893d
000000a0: 891a 95bb 9259 033e eaaa 9ebd e783 5abc
000000b0: c2ec 953d f01a 9ebc 1d3b 06be c906 1abe
000000c0: 2271 173e 1f54 5c3d c504 f93d 7858 0e3e
000000d0: aa14 11be dd2e bcbd 8051 083e 61ae adbc
000000e0: dbe8 cfbd 4d57 bcbc fdfb 753d d832 d6bd
000000f0: c86c 013e 9300 143e 9a8b 2e3d 3075 113d
00000100: aca6 0c3e 98d4 e93d a5ca 04be b3d4 093a
00000110: d5ca 89bd e376 8bbc 2feb 16be 3bd0 d5bd
00000120: 02bb c13d 6c64 9c3d f6f1 bebd b73f 113e
00000130: 3095 9e3d 1d78 ab3d 2303 5d3d cd3f b13d
00000140: 666e d0bd 38bf 0a3d 8f43 69bd d0b6 a3bd
00000150: b50f be3d 0c57 3b3d 5993 8b3d df38 ab3d
00000160: ee8e e6bc 5276 f1bd cb5a 343d 9229 1cbe
00000170: a7c0 893d c238 68bd 3d11 e2bd 8925 763c
00000180: 806c b7bd 511c ab3a 24b7 63bc 30c6 d43d
00000190: 9810 cbbd 1b71 52b9 9be1 60bd 5b2b c3bb
000001a0: abc7 cd3a 700b acbd 5afd 28bd e1da f73d
000001b0: 89d9 8dbd f471 213e 963e a13c 7148 11be
000001c0: 8720 e8bd 3389 08be 13d4 103e 01a1 0ebe
000001d0: 3129 70bd 0df6 a1bd 3bf5 003e 3d17 05be
000001e0: c1b2 62bd b98a f2bd 4901 4b3d fb95 e63d
000001f0: bd37 c03c c967 053e e347 62bd 527a 1e3e
00000200: 3edf f7bc 8027 20bd d1a7 e5bd 94b3 863d
00000210: b1b1 e73d ae3c 44bd b5c6 e83b b5a5 bd3d
00000220: 97b4 f6bd 1bc9 14be cde7 30bd 6a0f e1bd
00000230: de2b f4bb b353 96bd 8500 753b ead0 0cbe
00000240: e8d4 debd 2119 50bd 546b 213c 0aef 383d
00000250: 79db 583d 5110 8abd cefa 053d ee46 1bbc
00000260: 0afb b03d 3e98 cdbd c32d ba3d afe7 12bd
00000270: b7cf 09bc f684 833d 1d48 a53d 006f a43d
00000280: 3029 53bc 1a1e 4abc 31dd 9fbd a90f ec3d
00000290: 5d83 ef3d 59c8 e3bd 88de 4ebd 9a93 ee3d
000002a0: bd8b a23d 75d5 bbbd 96ea cdbd b37f 77bd
000002b0: 343d 0dbb c313 bc3d a177 983c ab23 f83c
000002c0: ab27 f1bd 3cff 2dbd f8e8 9bbd 6764 5f3d
000002d0: e6c9 0abe 627f db3d 7070 d53d a567 a1bd
000002e0: c429 083e 8482 e4bd dc6f e5bd f0f7 a9bd
000002f0: 229c 243e 79b3 863d 672f 3ab9 212e 9f3d
00000300: 93cb 9f3d 1e34 1abe f0a2 873d 9ea1 593d
00000310: d847 233c 972b 113e f2d0 213d 14b9 c73d
00000320: 2972 203e 83d1 393d 4868 21bd 3911 cf3d
00000330: 6bd2 78bd 97f3 933d a801 903d 6821 dc3d
00000340: e7b6 e53b 2bc3 0ebc 73c5 2a3d 28bf 8a3c
00000350: 3ace d73d b85d 873c 8d66 883c 1789 913d
00000360: c7b4 24ba 15ce ebbd 7758 363d fc40 cebc
00000370: c9bd 203e edb4 e93c ecdf 68bd 505c ec3d
00000380: be04 8f3c dae8 07be 7e3a 88bd fb67 13bd
00000390: 98c9 18be bce4 fbbd 31b1 093e f835 01be
000003a0: 3770 02be ae3a a3bd c878 b53d 1f7d 313d
000003b0: f5e6 b53c a58e a4bd 73a0 f1bc 1f4a 62bd
000003c0: a165 fdbd e013 17be 75c2 1e3e 615a 8abc
000003d0: 9793 8ebd c7d1 f3bd 3d0a 013d 095a 9a3d
000003e0: e190 3a3d d78e c63d fd73 263d d6a4 8c3d
000003f0: d130 85bb d185 c0bd dc9f 6bbb d647 0f3e
-0.01036095 0.1342321 -0.11330633 0.07630396 -0.06573926 0.0793366 -0.10104953 -0.107365735
0.07557955 0.06331578 0.008371197 0.11447698 -0.038615692 0.09561598 0.15176147 -0.052594893
0.16176952 0.12892258 0.018323421 -0.015554438 0.12614594 -0.06466406 0.13379535 0.08704134
-0.026853776 -0.08794014 -0.14237897 0.12371529 -0.104560964 0.0060048774 -0.061371032 -0.04414022
0.028527455 -0.1123802 0.08801215 0.03413196 -0.09457487 -0.094998874 0.14012022 0.06731166
-0.0045502824 0.12827137 -0.07747443 -0.013337112 0.073205486 -0.019299954 -0.13108487 -0.15041651
0.1478925 0.05379116 0.12159113 0.13900936 -0.14168039 -0.09188626 0.1331234 -0.021201314
-0.101518355 -0.022990847 0.060054768 -0.104589164 0.12639153 0.14453344 0.042613603 0.03551215
0.13735455 0.11417502 -0.12967928 0.000525783 -0.0672814 -0.017024463 -0.14738153 -0.104401074
0.09459497 0.076363415 -0.09323494 0.14184462 0.07743299 0.08372519 0.05395807 0.08654747
-0.10177307 0.033873767 -0.056949195 -0.07993853 0.0928034 0.04573731 0.06815214 0.08360457
-0.028144326 -0.11790146 0.0440319 -0.15250233 0.06726199 -0.056694753 -0.11038444 0.0150235975
-0.089562416 0.0013054704 -0.013898645 0.10389364 -0.099152744 -0.00020069296 -0.054902654 -0.005956096
0.0015699764 -0.08400619 -0.04125724 0.12102295 -0.06926257 0.15766126 0.019683164 -0.1418779
-0.11334329 -0.13333587 0.141434 -0.13928606 -0.058633033 -0.079082586 0.12593548 -0.12997146
-0.055346254 -0.118428655 0.049561772 0.11259075 0.023464078 0.13027872 -0.055244338 0.15476349
-0.030257817 -0.03910017 -0.11213649 0.065772206 0.11313189 -0.04790943 0.007103766 0.09260122
-0.120461635 -0.1452984 -0.043189812 -0.10989268 -0.0074515184 -0.07340183 0.0037384343 -0.1375157
-0.108804524 -0.050805215 0.009852249 0.04514984 0.05294368 -0.06741393 0.03270989 -0.00947736
0.08641632 -0.100388035 0.090907596 -0.035865482 -0.0084113395 0.06421845 0.08070395 0.08028984
-0.012888238 -0.012336278 -0.07805861 0.115264244 0.116949774 -0.11122198 -0.05050519 0.116492465
0.07936809 -0.09171573 -0.10054509 -0.060424518 -0.0021551372 0.09183457 0.018611731 0.030290445
-0.11775144 -0.04247974 -0.07612795 0.05453911 -0.1355358 0.10717656 0.104218364 -0.07881097
0.13297182 -0.111577064 -0.11202976 -0.082992435 0.16075185 0.065772004 -0.00017756001 0.0777247
0.078025006 -0.15058944 0.06622875 0.053132646 0.009965859 0.14176784 0.039505906 0.09752098
0.15668549 0.04536582 -0.03940609 0.10110707 -0.060747545 0.072241955 0.07031566 0.10748559
0.007010329 -0.008713524 0.04169221 0.016936854 0.105373815 0.01652418 0.016650463 0.07106226
-0.00062830414 -0.115139164 0.04451796 -0.025177471 0.15697397 0.028528655 -0.056854174 0.11541045
0.017458316 -0.1327242 -0.066517815 -0.035987835 -0.14920652 -0.12299487 0.134465 -0.12618244
-0.12738119 -0.07970177 0.08860928 0.043332215 0.022204855 -0.0803502 -0.029495453 -0.05524647
-0.123729 -0.14753675 0.15503867 -0.0168888 -0.06961744 -0.11905246 0.031503905 0.07536704
0.045548324 0.09695213 0.04063796 0.068673775 -0.0040646573 -0.094005235 -0.0035953438 0.13992247
